HW1/LENET_params.pkl (torch_old, 249583 bytes, 10 tensors)

conv1.weight f4 [6, 3, 5, 5]
0	0x3e709c5b	0.23497145
1	0x3e82b38d	0.2552761
2	0xbe057ee1	-0.13036682
3	0xbd5cba32	-0.053888507
4	0x3d7b5d71	0.06136841
5	0x3f0a5895	0.54041415
6	0xbf11948b	-0.56867284
7	0xbe582511	-0.2110789
8	0x3e942423	0.2893382
9	0x3c6a835b	0.014313544
10	0x3ea8254e	0.3284096
11	0xbf8ea1a1	-1.1143075
12	0x3df9fcf2	0.122064486
13	0x3f27193b	0.65272874
14	0xbcb99b40	-0.022657037
15	0x3bc89958	0.0061217956
16	0xbf6d7232	-0.92752373
17	0x3f18d3e9	0.5969835
18	0x3f3e1c44	0.7426188
19	0xbeaf92d6	-0.34291714
20	0x3b62f597	0.0034631246
21	0xbe32a266	-0.17444763
22	0x3f1d8487	0.61530346
23	0x3e8c8753	0.27446994
24	0xbe9caa1d	-0.30598536
25	0x3ce3d162	0.027809802
26	0xbcc2dc4e	-0.02378669
27	0xbe69749b	-0.22798388
28	0xbe6cc901	-0.23123552
29	0x3d46bf65	0.04852237
30	0x3ea28af1	0.3174663
31	0xbf176c63	-0.5914976
32	0xbed01b0f	-0.40645644
33	0x3e8313d2	0.2560106
34	0x3d9c3f1c	0.07629225
35	0x3e8ad9e0	0.2711935
36	0xbfa3b0e6	-1.278836
37	0x3db2da51	0.08733047
38	0x3f3d79c3	0.7401392
39	0x3c168cfd	0.009188888
40	0xbc48b88b	-0.01225103
41	0xbf7f2506	-0.9966587
42	0x3ecbbd4d	0.39792863
43	0x3f26ad99	0.6510864
44	0xbe9d492c	-0.30719888
45	0xbdb80f2e	-0.0898727
46	0xbecb4498	-0.3970077
47	0x3ec7a46f	0.3899264
48	0x3e430bb2	0.1904743
49	0xbe763b68	-0.24046099
50	0xbd84eccd	-0.06490479
51	0xbd68387f	-0.056694504
52	0xbdde0447	-0.108406596
53	0xbc964abb	-0.018346181
54	0x3de6d236	0.11270563
55	0x3e255afb	0.16147988
56	0xbf0ce7a5	-0.5504096
57	0xbe72125b	-0.23639815
58	0x3ed14ca9	0.408788
59	0x3e3b300f	0.18280052
60	0x3d963dda	0.07336016
61	0xbf885963	-1.0652279
62	0x3e262607	0.16225444
63	0x3f5a1b1a	0.85197604
64	0xbc08c0e6	-0.008346772
65	0xbdc2130d	-0.0947629
66	0xbf585927	-0.84511036
67	0x3f2ea31b	0.6821763
68	0x3f557eef	0.8339681
69	0xbe671df8	-0.22570026
70	0xbe18505d	-0.14874406
71	0xbeb19991	-0.34687474
72	0x3f025ff3	0.50927657
73	0x3e98a37a	0.29812223
74	0xbd92e1d4	-0.071719795
75	0xbdcdf505	-0.100564994
76	0xbe3bd6e9	-0.183437
77	0x3daa8746	0.083265826
78	0xbf06d1ff	-0.5266418
79	0x3dbaaf7f	0.091155045
80	0x3e9942eb	0.29933867
81	0x3e900867	0.2813141
82	0xbd8ae6f0	-0.06782329
83	0xbf35e48a	-0.7105185
84	0x3e360b71	0.17777802
85	0x3dc26014	0.09490982
86	0x3ee8f1c2	0.45496947
87	0x3f116831	0.5679961
88	0xbdaea5d3	-0.08527722
89	0xbe8270a2	-0.25476557
90	0xbd65956b	-0.0560507
91	0xbdc617c8	-0.09672505
92	0x3ef9af00	0.48766327
93	0x3f383991	0.7196284
94	0xbec74188	-0.38917184
95	0x3e6f968a	0.2339727
96	0xbdd73e32	-0.1050991
97	0xbe34e9e2	-0.17667344
98	0x3efba612	0.4915014
99	0x3e11924a	0.14215961
100	0x3d97856a	0.073984936
101	0x3d019137	0.03163263
102	0x3e64aa3d	0.22330566
103	0xbeea33c3	-0.45742616
104	0x3e8c81b9	0.2744272
105	0x3ea763f8	0.32693458
106	0x3ecfc2ac	0.4057821
107	0x3dc01ce1	0.09380508
108	0xbf2029cc	-0.62563777
109	0x3ddf12e0	0.10892272
110	0xbd81c01a	-0.063354686
111	0x3f0c2a8f	0.5475244
112	0x3ed4e640	0.41581917
113	0xbe58b18b	-0.21161477
114	0xbea2ae5c	-0.3177365
115	0xbe469f0f	-0.19396614
116	0xbe8a973e	-0.27068514
117	0x3ee87300	0.45400238
118	0x3f100df7	0.5627131
119	0xbeac1807	-0.3361208
120	0x3e0c98aa	0.13730112
121	0xbe608753	-0.21926622
122	0xbee800e4	-0.4531318
123	0x3ec0a329	0.3762448
124	0xbdfc2100	-0.12310982
125	0xbe835a1e	-0.2565469
126	0xbe129977	-0.14316355
127	0x3d4b802a	0.049682774
128	0xbf1337f4	-0.5750725
129	0x3d7a2ffe	0.061080925
130	0x3e03670a	0.12832275
131	0x3de69456	0.112587616
132	0xbe718512	-0.23585919
133	0xbf16b1c4	-0.58865
134	0x3ddf3b0d	0.10899935
135	0xbe13bc88	-0.14427388
136	0x3e92293e	0.2854709
137	0x3e62e3b9	0.22157182
138	0xbe83c261	-0.25734237
139	0xbeff845c	-0.4990567
140	0xbe910f8a	-0.28332168
141	0xbe1deaf1	-0.15421654
142	0x3ec35dc0	0.38157463
143	0x3efb551d	0.49088374
144	0xbf0c4c21	-0.54803663
145	0x3d27beaf	0.040953334
146	0xbe465e06	-0.19371805
147	0xbeb496cd	-0.35271302
148	0x3ec324da	0.38114053
149	0xbe76049d	-0.24025197
150	0xbdd9c8b9	-0.10633988
151	0xbea1ab37	-0.3157594
152	0xbe86c701	-0.26323703
153	0x3dabfe96	0.08398168
154	0xbd97a36f	-0.07404219
155	0x3d6abd3f	0.057309385
156	0x3eb2d38b	0.3492702
157	0x3f54f6c6	0.83189046
158	0x3f06eb30	0.5270262
159	0xbd424ed3	-0.047438454
160	0x3e26ef8d	0.16302319
161	0x3f195b2a	0.5990473
162	0x3f3c2075	0.73487025
163	0x3d4b3960	0.049615264
164	0xb916025e	-0.00014305997
165	0xbcdba651	-0.026812704
166	0xbbc6ca44	-0.0060665924
167	0xbf4056a4	-0.75132203
168	0xbf83eb9f	-1.0306281
169	0xbe3f18e4	-0.18661839
170	0xbe1103ae	-0.1416156
171	0xbe5fd2e4	-0.21857792
172	0xbf024c47	-0.5089764
173	0xbcb82a8e	-0.02248123
174	0x3e94bfe6	0.29052657
175	0x3e836d01	0.256691
176	0xbe6775ed	-0.22603579
177	0x3d3d9232	0.046282
178	0x3ca364c8	0.019945517
179	0xba6272be	-0.0008638314
180	0xbe4d0020	-0.20019579
181	0x3e83bbfc	0.25729358
182	0x3f4c2691	0.7974635
183	0x3ef014e1	0.4689093
184	0xbe127b01	-0.14304735
185	0x3de21b1f	0.11040329
186	0x3f468379	0.7754436
187	0x3f42f186	0.76149786
188	0xbd8a8830	-0.06764257
189	0xbe1e2819	-0.15444984
190	0xbd998ef7	-0.074979715
191	0xbd3bb5f4	-0.04582782
192	0xbf69c590	-0.9131708
193	0xbf971f39	-1.1806403
194	0xbe42bc6d	-0.19017191
195	0xbdf7ac36	-0.120933935
196	0xbec5246b	-0.38504347
197	0xbf018425	-0.5059226
198	0xbdee7d4a	-0.11644991
199	0x3e8b473c	0.27202785
200	0x3dba6892	0.091019765
201	0xbec987f8	-0.39361548
202	0xbe9e6383	-0.30935296
203	0xbe656664	-0.2240234
204	0xbe2828ac	-0.16421765
205	0xbe9a9f77	-0.30199787
206	0xbda8ff68	-0.0825184
207	0x3ebe52bc	0.37172496
208	0x3e978457	0.29593155
209	0x3bbaf993	0.005706021
210	0x3e5e008b	0.21679895
211	0x3ef02f54	0.46911108
212	0x3f24730e	0.6423806
213	0x3d4569a6	0.048196457
214	0x3e436f1d	0.19085355
215	0x3e27326e	0.16327831
216	0x3e05c8b2	0.1306484
217	0xbed911ec	-0.42396486
218	0xbf38ff65	-0.722647
219	0xbcbc8aed	-0.023015464
220	0xbe09fd9f	-0.13475655
221	0xbe196a78	-0.14982021
222	0xbe533c09	-0.2062837
223	0x3e9e3b23	0.30904493
224	0x3ea22c55	0.31674448
225	0xbd75f9db	-0.060052734
226	0x3c0a94b5	0.008458306
227	0x3eab46c6	0.33452433
228	0xbd9af11d	-0.0756552
229	0x3cba35fd	0.022730822
230	0xbe773b9a	-0.2414383
231	0xbee1253f	-0.4397373
232	0x3e360cb2	0.1777828
233	0x3e88b9ae	0.26704162
234	0x3cc1fd60	0.023680389
235	0x3da821af	0.0820955
236	0xbf28749a	-0.6580292
237	0xbe7bb953	-0.24582414
238	0x3e814b3b	0.2525271
239	0x3e968da4	0.29404938
240	0x3e796537	0.24355017
241	0xbe84a100	-0.25904083
242	0xbf14df24	-0.58152986
243	0xbea6bb51	-0.32564786
244	0x3c18397e	0.009291051
245	0x3d762290	0.060091555
246	0xbe29c4ae	-0.16578934
247	0xbdb53fab	-0.08850034
248	0xbe2ace1e	-0.1668019
249	0xbe0e4162	-0.13892129
250	0xbea13f1a	-0.31493455
251	0xbe47e223	-0.19519858
252	0x3e8ed3b2	0.27895886
253	0xbcfcb4df	-0.030847965
254	0xbd89c9f4	-0.067279726
255	0xbe692958	-0.22769678

conv1.bias f4 [6]
0	0xbd705a19	-0.058679674
1	0x3e82d8d7	0.2555606
2	0xbebfae9a	-0.37437898
3	0x3f1f7f2e	0.62303436
4	0xbf2036d9	-0.6258369
5	0x3f97e298	1.1866026

conv2.weight f4 [16, 6, 5, 5]
0	0xbec7414b	-0.38917002
1	0xbe227fbe	-0.15869042
2	0x3d2eaeb0	0.042647064
3	0xbc367a29	-0.011137524
4	0xbd35b16a	-0.04435865
5	0xbe87a6ce	-0.2649445
6	0x3d8af554	0.06785074
7	0x3eb38ce4	0.3506843
8	0x3e232643	0.15932564
9	0xbd95dfbe	-0.07318066
10	0xbe81acfc	-0.2532729
11	0x3e43aff8	0.19110096
12	0x3f07e9df	0.53091234
13	0x3d83334d	0.06406269
14	0xbdd324a7	-0.10309725
15	0xbe26b30b	-0.16279237
16	0x3e6afbfe	0.2294769
17	0x3ea92ad4	0.33040488
18	0x3bfb71ee	0.0076734936
19	0xbe8771bd	-0.26453963
20	0xbe88a0e7	-0.2668526
21	0x3e2acc32	0.16679457
22	0xbd597203	-0.053087246
23	0xbe01c241	-0.12671758
24	0xbe7963c7	-0.24354468
25	0x3e36f9ce	0.1786873
26	0xbccca232	-0.024979685
27	0xbe18b45d	-0.14912553
28	0xbe8383fe	-0.2568664
29	0xb9ebc512	-0.00044969522
30	0x3ddc32a8	0.107518494
31	0x3d967c9e	0.073479876
32	0xbd25827a	-0.040407635
33	0xbe0a774c	-0.1352207
34	0x3e0e7645	0.13912304
35	0x3e84b3b2	0.25918347
36	0x3dea6d8c	0.11446676
37	0x3dc00b8b	0.09377202
38	0xbdc97050	-0.09835875
39	0xbd972507	-0.07380109
40	0x3e23a01b	0.15979044
41	0xbd874c01	-0.066062935
42	0xbe017f67	-0.12646256
43	0xbe88f158	-0.2674663
44	0xbe5d1d2c	-0.2159316
45	0x3ddba174	0.10724154
46	0x3ca4b5e1	0.020106258
47	0xbdb8f54f	-0.09031164
48	0xbebffa04	-0.37495434
49	0xbe860b57	-0.26180527
50	0xbc9172ca	-0.017754931
51	0xbe7f729c	-0.24946064
52	0xbe0b9e52	-0.13634613
53	0x3e573fa5	0.21020372
54	0x3d8e44fe	0.06946753
55	0xbe80a58d	-0.25126305
56	0xbe9f156a	-0.31071025
57	0xbe3f9a4b	-0.18711202
58	0xbb8d036e	-0.0043033874
59	0xbeafb32c	-0.34316385
60	0xbe178fe1	-0.14800979
61	0xbeb49d38	-0.35276198
62	0xbe949545	-0.29020134
63	0xbe13587d	-0.14389224
64	0xbe8d060e	-0.27543682
65	0xbd211fc6	-0.039336942
66	0xbea49355	-0.32143655
67	0xbe3e96ef	-0.18612264
68	0xbe58df09	-0.21178831
69	0xbe8458cf	-0.25849006
70	0xbd41002e	-0.047119312
71	0xbd676b21	-0.05649865
72	0xbe3968e2	-0.18106416
73	0xbe6dc6e8	-0.23220408
74	0xbd8b283f	-0.06794786
75	0x3dfe96aa	0.12431081
76	0x3d5af164	0.053452864
77	0xbd2114e6	-0.03932657
78	0x3dfd0f89	0.12356479
79	0x3daec44e	0.08533536
80	0x3d8c97ab	0.06864866
81	0x3db66a3c	0.08906981
82	0xbc575d3b	-0.0131447865
83	0x3ce52fe7	0.027976943
84	0xbd7ecb10	-0.062205374
85	0xbdafe4f8	-0.08588594
86	0xbd8f401b	-0.06994649
87	0x3d5ca3cf	0.053867158
88	0xbd82d30b	-0.063879095
89	0xbe703f34	-0.2346161
90	0xbdccfed8	-0.10009545
91	0x3d4f3171	0.05058426
92	0x3dd1e085	0.10247902
93	0x3e399321	0.18122531
94	0xbde4c36d	-0.11170087
95	0x3e8a2080	0.2697792
96	0x3e7625fa	0.24037924
97	0x3e2e7648	0.17037308
98	0x3e64cbb4	0.22343332
99	0x3d6a01c1	0.05713058
100	0xbd069249	-0.032854352
101	0xbc2a3496	-0.010388514
102	0x3e359486	0.17732438
103	0x3dc474c5	0.095925845
104	0x3d738f0f	0.059462603
105	0x3e505ca9	0.20347847
106	0x3e665734	0.22494203
107	0x3e2efbd7	0.17088257
108	0x3d89927a	0.06717391
109	0xbde0bdd5	-0.109737076
110	0x3e1b2bb4	0.1515339
111	0x3e97a0e6	0.29614943
112	0x3d287ef8	0.04113671
113	0xbd2bf9fa	-0.041986443
114	0xbdcc8d0a	-0.099878386
115	0x3d5753fb	0.052570324
116	0x3d2ef019	0.042709444
117	0x3c14c57f	0.00908029
118	0xbbf2fce6	-0.0074154017
119	0xbe249de4	-0.16075855
120	0x3dd417b1	0.10356081
121	0x3e271c5d	0.16319413
122	0x3d1f0d4c	0.03883104
123	0xbdbd6fdc	-0.09249851
124	0xbdd3dd07	-0.10344892
125	0xbe82da20	-0.2555704
126	0xbe277d31	-0.1635635
127	0xbe77fb91	-0.24217059
128	0x3dd16782	0.10224821
129	0x3e5ce5ca	0.21572033
130	0xbd2fac34	-0.042888835
131	0xbe0ec5ab	-0.13942592
132	0x3bfdb9c5	0.0077430927
133	0x3e96afac	0.29430902
134	0x3ea7ae56	0.32750195
135	0xbe586df7	-0.21135698
136	0xbea6564e	-0.3248772
137	0xbce38bf5	-0.027776698
138	0x3e68165d	0.22664781
139	0x3eba2077	0.36352894
140	0xbe2da78c	-0.16958445
141	0xbe534a43	-0.20633797
142	0xbe442767	-0.19155656
143	0x3d05c004	0.032653823
144	0x3e1e830a	0.15479675
145	0xbdf86708	-0.12129027
146	0xbe926b8b	-0.28597674
147	0xbe0982c7	-0.13428794
148	0x3deb786e	0.114975795
149	0x3e3b9685	0.18319137
150	0xbcd8a2f1	-0.026444884
151	0x3e9a6e16	0.30162114
152	0x3eb0d2f0	0.34535933
153	0x3e8a6afb	0.27034745
154	0xbda03544	-0.078226596
155	0x3d8d700a	0.069061354
156	0x3de86519	0.11347408
157	0x3eaafa63	0.33394155
158	0x3d0ce836	0.03440114
159	0xbe00d262	-0.12580255
160	0x3e06878a	0.13137642
161	0x3e6a0c76	0.22856316
162	0xbe2261bd	-0.15857597
163	0xbe885882	-0.26630026
164	0x3d84fd4e	0.064936265
165	0x3e257753	0.161588
166	0xbd48ffc7	-0.049072053
167	0xbe6993a9	-0.22810234
168	0x3d4b9e31	0.04971141
169	0x3aed886e	0.0018122324
170	0xbe009828	-0.12558043
171	0xbe99b365	-0.3001968
172	0xbe7f797c	-0.24948686
173	0x3e02bdea	0.12767759
174	0x3d14326c	0.0361809
175	0x3c9380be	0.018005725
176	0xbe80a282	-0.25123984
177	0xbe37af24	-0.17937905
178	0x3daf6469	0.085640736
179	0x3e0e1e36	0.13878712
180	0xbebc74a1	-0.3680773
181	0xbe750d2d	-0.23930807
182	0xbe7b68e2	-0.24551728
183	0x3c9a6424	0.018846579
184	0x3dd340dc	0.10315105
185	0xbee909de	-0.4551534
186	0xbeaa2ecb	-0.33238825
187	0xbe10d0b6	-0.14142117
188	0x3e0ab0cf	0.1354401
189	0x3d8da322	0.06915881
190	0xbec4c63c	-0.3843249
191	0xbdb21cf3	-0.08696928
192	0x3dca1188	0.09866625
193	0x3e76975e	0.2408118
194	0xbcc41f31	-0.023940654
195	0xbe2afac5	-0.16697223
196	0x3d02fc8c	0.03197913
197	0x3e9f9dfe	0.31175226
198	0x3eb658b9	0.35614565
199	0x3d248ff2	0.04017634
200	0x3e70dc6b	0.23521583
201	0x3e22e568	0.15907824
202	0x3e0e6e92	0.13909367
203	0x3c48592a	0.01222829
204	0xbdec3e24	-0.1153529
205	0x3e3fdaa8	0.18735754
206	0xbdee4ac9	-0.11635358
207	0xbe560a97	-0.20902477
208	0xbd7439c9	-0.05962542
209	0x3dcd84b0	0.10035074
210	0xbdecd4b6	-0.11564009
211	0xbe50f795	-0.20406945
212	0xbcd51249	-0.026009696
213	0xbd054037	-0.032531943
214	0xbd3c1389	-0.045917068
215	0xbdce4ffa	-0.10073848
216	0xbdaf96e4	-0.08573702
217	0xbde02650	-0.109448075
218	0xbe96f33e	-0.29482454
219	0xbea7e611	-0.32792714
220	0x3cad4a7d	0.021153683
221	0x3c72b261	0.014813037
222	0xbcc0af43	-0.023521071
223	0xbe37bbc4	-0.1794272
224	0x3b7c0b6f	0.0038458963
225	0x3edaefaa	0.42760974
226	0x3e69bb68	0.22825396
227	0xbdaec516	-0.08533685
228	0x3d8083fe	0.062751755
229	0xbe08f8db	-0.13376181
230	0x3e3695c6	0.17830572
231	0x3e654e66	0.22393188
232	0xbe4258a3	-0.18979125
233	0xbe1a6e4d	-0.15081139
234	0xbdd9569b	-0.10612222
235	0x3e8dc1ed	0.27687016
236	0x3cebc2f7	0.02877949
237	0xbe3ae93c	-0.18253034
238	0xbe242690	-0.16030335
239	0xbd9c429c	-0.07629892
240	0x3e40f8ab	0.1884486
241	0xbe35dde4	-0.17760426
242	0xbe911ee3	-0.28343877
243	0xbdee0800	-0.1162262
244	0xbe706af6	-0.23478302
245	0xbe099aa9	-0.13437904
246	0xbe6438f0	-0.22287345
247	0xbd40f6a7	-0.047110226
248	0xbdda1abd	-0.10649631
249	0xbdf54276	-0.11975567
250	0x3d073937	0.03301355
251	0x3d95cab5	0.07314054
252	0x3e146383	0.14491086
253	0x3d99dde2	0.07513024
254	0x39c65fa3	0.00037836758
255	0xbcdf97a7	-0.027293993

conv2.bias f4 [16]
0	0x3ee487e2	0.4463492
1	0x3cbe8897	0.02325849
2	0xbec1a0ed	-0.3781809
3	0xbef74bad	-0.48299924
4	0xbee5779d	-0.4481782
5	0x3e971e92	0.2951551
6	0x3eb94e0c	0.36192358
7	0x3ea61242	0.32435805
8	0x3de10de3	0.10988977
9	0xbf052384	-0.5200732
10	0x3e121148	0.14264405
11	0x3e41c7e7	0.18923913
12	0xbe246cbc	-0.16057104
13	0x3ecc0ba5	0.39852634
14	0xbf1a19ee	-0.60195816
15	0xbf0ef8f6	-0.55848634

fc1.weight f4 [120, 400]
0	0x3cbbd9e0	0.02293104
1	0xbdccfba4	-0.10008934
2	0xbc3affdd	-0.011413542
3	0xbe394575	-0.18092902
4	0xbd4da0d9	-0.050202224
5	0xbc974324	-0.018464632
6	0xbd0ec53c	-0.034856066
7	0xbced71d1	-0.028984936
8	0x3d4660d7	0.048432197
9	0x3d1b84a8	0.037968308
10	0x3d8ea3d4	0.069648415
11	0x3dffb2f0	0.124853015
12	0xbca6dd0b	-0.020369073
13	0xbd568fdf	-0.0523833
14	0x3d5de279	0.05417106
15	0x3de08693	0.10963168
16	0x3df052a5	0.11734513
17	0xbc0623fc	-0.00818729
18	0x3c86ecd5	0.016470352
19	0x3cf7d8d6	0.030254763
20	0xbc7a0e2a	-0.015262166
21	0xbbbf817f	-0.0058442946
22	0xbd839257	-0.064243965
23	0x3e1a9de9	0.150993
24	0xbc7ecf3c	-0.015552338
25	0x3d16d54a	0.036824502
26	0xbd869f2a	-0.06573327
27	0xbdee49b4	-0.116351515
28	0x3cba6cc1	0.022756936
29	0xbb5ca27e	-0.0033666189
30	0x3c3b5bc8	0.011435457
31	0x3d8c8d0d	0.06862841
32	0xbd55e0b4	-0.052216247
33	0x3d8e5651	0.06950057
34	0x3d722f51	0.059127156
35	0xbe0eec39	-0.139573
36	0xbc7fb4c8	-0.015607066
37	0xbd9b5598	-0.07584685
38	0x3d15558f	0.03645855
39	0x3e13f06f	0.14447187
40	0x3d6b4c54	0.05744584
41	0x3c0baec7	0.008525557
42	0x3d3df587	0.04637673
43	0xbd9d2bda	-0.0767438
44	0x3de050b6	0.109528944
45	0x3cbdde45	0.023177275
46	0xbdba901d	-0.09109519
47	0xbd93501a	-0.071930125
48	0xbd53a9ad	-0.051675487
49	0x3da303d6	0.07959716
50	0xbd8d2945	-0.06892637
51	0xbd2d4ea7	-0.042311337
52	0xbd6f65b9	-0.05844662
53	0xbd89cc77	-0.06728452
54	0xbc8a2a37	-0.016865833
55	0xbdcc7543	-0.099833034
56	0x3daa2fd5	0.083099045
57	0x3c53e64d	0.012933326
58	0xbce9ec55	-0.028555075
59	0xbcfc6fa9	-0.030814962
60	0xbd805b13	-0.06267371
61	0xbdad0da7	-0.084498696
62	0xbb07516e	-0.00206479
63	0xbddcfbbb	-0.10790201
64	0x3cae3560	0.021265686
65	0x3e12732f	0.14301752
66	0x3d8f0b37	0.06984561
67	0x3d9279c9	0.07152135
68	0xbd1d0a53	-0.038339924
69	0x3c417043	0.01180655
70	0xbde4e409	-0.11176307
71	0xbdd33120	-0.10312104
72	0x3a8633e1	0.001023885
73	0xbdf3b5f5	-0.1189994
74	0x3a894558	0.0010472937
75	0xbba25d3f	-0.0049549635
76	0xbe027c66	-0.12742767
77	0x3d8e5645	0.06950048
78	0xbd0f4f82	-0.034987934
79	0xbe01ce16	-0.12676272
80	0xbb347f22	-0.0027541597
81	0x3de012b7	0.109410696
82	0x3d810965	0.0630062
83	0x3d5150fe	0.05110263
84	0xbdac220e	-0.08404933
85	0x3d709284	0.05873348
86	0x3debf9f6	0.11522286
87	0x3bbebfa0	0.0058211833
88	0xbdbb745d	-0.09153054
89	0xbd8db7e6	-0.069198415
90	0xbd94fa8a	-0.07274349
91	0xbdee76ab	-0.11643728
92	0xbc0b618f	-0.0085071465
93	0xbe2d80bf	-0.16943644
94	0xbe4f8aa3	-0.2026773
95	0x3cbc56d9	0.022990631
96	0xbda4eb98	-0.080527484
97	0x3db3cd37	0.08779376
98	0xbcdcb404	-0.026941307
99	0xbe1d6aa2	-0.15372708
100	0xbce85472	-0.02836058
101	0x3d730a4a	0.059335984
102	0x3e28d70a	0.16488281
103	0x3d35866e	0.044317655
104	0x3daa9cf0	0.08330715
105	0xbe0ccf37	-0.13750921
106	0xbd4ea1c7	-0.05044725
107	0xbe5a46ca	-0.21316066
108	0x3cf789d1	0.030217083
109	0x3a9c9f66	0.001194936
110	0x3d24c1e5	0.040223975
111	0x3b6b4f7b	0.0035905528
112	0xbd114693	-0.035467695
113	0x3da20abb	0.07912203
114	0x3d0f3b47	0.03496864
115	0xbbabdccf	-0.0052448283
116	0x3dc73672	0.097271815
117	0x3e37654d	0.17909737
118	0x3ca71275	0.020394543
119	0x3cbb2b10	0.022847682
120	0x3d7b54aa	0.06136004
121	0x3c919587	0.017771496
122	0x3e1fc469	0.15602268
123	0xbd062778	-0.032752484
124	0x3dcdd3f6	0.10050194
125	0xbdc0f7eb	-0.094222866
126	0xbd1ed839	-0.038780425
127	0xbc0a076c	-0.008424621
128	0xbd45b716	-0.048270307
129	0xbde0738f	-0.10959541
130	0xbc427695	-0.0118690925
131	0x3d620183	0.055177223
132	0xbd969bf5	-0.07353965
133	0xbda4a33a	-0.080389455
134	0xbdb870e2	-0.09005906
135	0x3db8747f	0.09006595
136	0x3dc4a13f	0.09601068
137	0x3d3a8526	0.045537136
138	0xbe49ac3a	-0.19694605
139	0xbd1b0b8f	-0.03785282
140	0x3da4e464	0.080513746
141	0x3d802429	0.06256897
142	0xbd0c6294	-0.0342737
143	0x3e0485f2	0.12941721
144	0x3e0a826b	0.13526313
145	0x3dcbe9ef	0.09956729
146	0x3d98c36c	0.07459149
147	0xbdcaa3ab	-0.098944984
148	0x3d8117b9	0.06303353
149	0x3dae6988	0.08516222
150	0x3dcb5316	0.09927957
151	0xbccbd567	-0.024882032
152	0xbb5bfa57	-0.0033565962
153	0x3d5b100e	0.053482108
154	0xbddac843	-0.10682728
155	0xbd03e4e7	-0.03220072
156	0x3cffefc2	0.031242255
157	0x3d5b0619	0.053472612
158	0x3d1d609c	0.038422212
159	0xbdd779a8	-0.10521251
160	0xbce208a4	-0.02759201
161	0x3d19eddb	0.037580352
162	0x3d21059d	0.039311994
163	0x3bd208b7	0.0064097303
164	0x3d45d605	0.048299808
165	0xbd6c1427	-0.057636406
166	0xbe0dd767	-0.138517
167	0xbcf512b1	-0.02991614
168	0xbb39f833	-0.0028376698
169	0xbda5c5f2	-0.08094396
170	0x3d12b3b7	0.03581592
171	0x3d36cc9e	0.044628732
172	0x38a143f8	7.6897384e-05
173	0xbcd105fa	-0.025515545
174	0xbd88e7d7	-0.06684845
175	0xbd22aec7	-0.039717462
176	0x3d42cfe1	0.04756153
177	0xbbcad407	-0.0061898264
178	0x3df5de83	0.12005331
179	0x3d63e3a0	0.055637002
180	0xbdd2eac1	-0.10298682
181	0x3c17d812	0.009267824
182	0x3dc52731	0.09626616
183	0x3d87f42d	0.0663837
184	0xbddb05e3	-0.10694482
185	0x3d558c43	0.052135717
186	0x3dbd860a	0.092540815
187	0xbd1c5a7a	-0.038172223
188	0xbdb83c92	-0.08995928
189	0xbdd13f7c	-0.10217187
190	0xbe08c00f	-0.13354515
191	0x3d378cef	0.04481214
192	0x3be9f3b8	0.0071396492
193	0xbc381216	-0.011234781
194	0xbe1becbe	-0.15227029
195	0x3bc7bd5a	0.0060955705
196	0xbd8febd2	-0.07027401
197	0x3e272ea5	0.16326387
198	0x3d3adf70	0.045623243
199	0xbdc4df80	-0.09612942
200	0xbe268d0c	-0.16264743
201	0xbcd8f134	-0.026482202
202	0x3c8e9472	0.017404769
203	0x3deba6ed	0.11506448
204	0x3e027c2b	0.12742679
205	0xbbebe41f	-0.007198825
206	0x3db37aab	0.087636314
207	0x3d925992	0.071459904
208	0x3e1c3184	0.15253264
209	0x3d5c7ad4	0.053828076
210	0x3d4afa22	0.04955495
211	0x3ce55aab	0.027997335
212	0x3d319db1	0.043363277
213	0xbd18cbac	-0.03730361
214	0xbc488a64	-0.012240026
215	0x3c861746	0.01636852
216	0xbd772458	-0.060337394
217	0xbd97ad11	-0.07406057
218	0x3c26b5c1	0.010175169
219	0xbccb7ee3	-0.024840778
220	0xbcea9da5	-0.028639624
221	0xbd7f6fa5	-0.062362332
222	0xbcdf52e7	-0.02726121
223	0xbc0889c8	-0.008333631
224	0xbd0d6632	-0.03452129
225	0x3d9acfb4	0.075591475
226	0xbc2ebe1c	-0.010665443
227	0x38e1755c	0.00010750696
228	0x3e4b19a6	0.19834003
229	0x3d227b1c	0.039668187
230	0xbc16073d	-0.009156999
231	0x3da9caab	0.08290609
232	0x3dcbc2c4	0.09949258
233	0x3cae39f8	0.021267876
234	0x3d458211	0.048219744
235	0x3dac6cc4	0.08419183
236	0x3d9e831b	0.0773985
237	0xbde4a3fc	-0.1116409
238	0x3dc7886f	0.097428195
239	0x3d94361d	0.07236884
240	0x3d1c9415	0.03822716
241	0xbc78a520	-0.015176088
242	0xbd8856d8	-0.06657189
243	0x3de32adc	0.11092159
244	0x3c8c1fe3	0.017105049
245	0xbdf51d1a	-0.11968441
246	0xbe27b505	-0.16377647
247	0xbc9e40c4	-0.019317992
248	0xbd9ac8a8	-0.075578034
249	0x3c1e2f5d	0.009654847
250	0xbd02a63c	-0.031896815
251	0x3d02b941	0.031914953
252	0x3c13c4be	0.009019075
253	0x3e128173	0.14307193
254	0x3dbabeae	0.091184005
255	0xbd5a3ae8	-0.053278834

fc1.bias f4 [120]
0	0xbd9b99f9	-0.07597727
1	0x3da228a7	0.0791791
2	0xbdfac7e6	-0.12245159
3	0xbe160e43	-0.14653878
4	0x3ba63eb6	0.0050733937
5	0xbd55cfeb	-0.05220024
6	0x3d1b516c	0.037919447
7	0xbe0b1bbe	-0.13584802
8	0xbd07d4bf	-0.033161875
9	0xbdc18840	-0.09449816
10	0xbd8f53e8	-0.06998426
11	0x3d17f107	0.037095096
12	0x3e38f85c	0.18063492
13	0x3b17d25c	0.0023166155
14	0x3e80abe2	0.25131136
15	0x3d70a677	0.058752503
16	0x3d96a6f9	0.07356066
17	0xbe0355a5	-0.1282564
18	0xbd811f27	-0.0630477
19	0x3ca033bc	0.019555919
20	0x3cf7955d	0.03022259
21	0x3d5a4e1b	0.053297143
22	0x3c0eb9a2	0.0087112505
23	0x3d19ac8e	0.037518077
24	0x3a983570	0.0011612605
25	0x3da7c057	0.08190983
26	0x3c7c7d35	0.015410711
27	0x3dafd3ad	0.08585296
28	0x3e8c0257	0.27345535
29	0xbdc855a1	-0.097819574
30	0x3e7fef30	0.24993587
31	0x3deffcf5	0.117181696
32	0xbc9af4c4	-0.018915541
33	0xbc2cbec1	-0.010543526
34	0xbdc61b64	-0.09673193
35	0x3dbcd77e	0.092207894
36	0xbe734c95	-0.23759682
37	0x3e8664ea	0.26248866
38	0x3ca0749c	0.019586854
39	0xbd813668	-0.06309205
40	0x3e095e79	0.13414945
41	0xbd432361	-0.04764116
42	0x3e256eca	0.16155544
43	0x3c9ee272	0.019395087
44	0x3d27b5c7	0.04094484
45	0x3db53af6	0.088491365
46	0xbcd471b8	-0.025933132
47	0xbda7adbf	-0.08187436
48	0xbdfdce10	-0.12392819
49	0xbe1f2c6c	-0.1554429
50	0xbdce7c93	-0.100823544
51	0x3db2c3c5	0.08728746
52	0x3dfb2c96	0.122643635
53	0x3dda0ce5	0.10646991
54	0x3e06b980	0.131567
55	0x3d3da2fe	0.04629802
56	0xbd59b38d	-0.05314975
57	0xbd1b4472	-0.03790707
58	0x3e6de095	0.23230202
59	0xbdfdadb1	-0.12386645
60	0xbd39aa86	-0.04532864
61	0x3e04936d	0.12946863
62	0x3e05d2be	0.13068673
63	0xbd351a94	-0.0442148
64	0xbc01608a	-0.007896552
65	0xbd9cde42	-0.0765958
66	0xbc245649	-0.010030338
67	0x3e5372e2	0.20649293
68	0xbd4149cf	-0.04718953
69	0xbdb80dfc	-0.08987042
70	0xbdc23a6a	-0.09483798
71	0xbcb98956	-0.022648495
72	0x3db3b07e	0.087738976
73	0xbd6fdc67	-0.0585598
74	0x3da0f82c	0.07859835
75	0xbd8d6135	-0.069033064
76	0xbd97b839	-0.074081846
77	0x3d8734b7	0.066018514
78	0x3df184a8	0.1179288
79	0xbd933647	-0.07188087
80	0xbdb772bb	-0.0895743
81	0xbdee25e9	-0.116283245
82	0x3d1a4456	0.037662826
83	0xbda8600c	-0.082214445
84	0xbd8878a6	-0.06663637
85	0x3da76765	0.08174018
86	0x3dbe88bb	0.09303423
87	0x3e06be9a	0.13158646
88	0x3d1a44d5	0.0376633
89	0xbd72cd92	-0.05927808
90	0xbd6029f1	-0.0547275
91	0xbe06dad5	-0.13169415
92	0xbe2b5591	-0.1673186
93	0x3d4335cc	0.047658727
94	0x3ce7f1a6	0.02831347
95	0xbcaea73c	-0.021319978
96	0x3d72faf9	0.059321377
97	0x3d6b139b	0.057391744
98	0x3e2e7dbe	0.17040154
99	0x3cbad41e	0.022806223
100	0xbb8532ad	-0.004064879
101	0xbc936e89	-0.017997043
102	0x3cf69e74	0.030104853
103	0xbcfe1bed	-0.031019175
104	0x3d5ab6cf	0.053396996
105	0x3d6b5edc	0.05746351
106	0x3d448564	0.047978774
107	0xbdfb515d	-0.12271378
108	0x3e5200e8	0.20508158
109	0x39dac901	0.0004172996
110	0xbc527017	-0.012844107
111	0xbd3658fb	-0.044518452
112	0xbd36c72d	-0.044623543
113	0xbcd418e8	-0.025890782
114	0x3d16a8b3	0.036781978
115	0x3dfa7944	0.12230161
116	0xbd663268	-0.056200415
117	0x3e965e49	0.2936881
118	0x3cbff0e2	0.023430292
119	0x3dc4cc25	0.0960925

fc2.weight f4 [84, 120]
0	0x3e224224	0.15845543
1	0x3d00ce36	0.031446658
2	0x3d2b28b4	0.041786864
3	0xbdaa440f	-0.083137624
4	0x3dc5d501	0.09659768
5	0xbe4a376f	-0.19747709
6	0x3d477b6f	0.0487017
7	0xbc83d9ec	-0.016095124
8	0x3e1fa9c3	0.15592103
9	0x3e2277e2	0.15866044
10	0xbde1e73c	-0.110304326
11	0x3b957abf	0.0045617516
12	0x3cb0a089	0.021560924
13	0x3df8e931	0.12153853
14	0x3c569671	0.013097391
15	0x3ddceac6	0.10786967
16	0x3e85dbea	0.26144344
17	0xbdb44756	-0.08802669
18	0xbdf5b7fb	-0.11997982
19	0xbd11643c	-0.03549598
20	0x3e634459	0.22194041
21	0x3dde2a46	0.10847907
22	0x3d8b22ab	0.06793722
23	0x3da9e084	0.08294776
24	0xbde8e339	-0.11371464
25	0xbddad32c	-0.10684809
26	0x3be13ca5	0.0068736845
27	0x3c9872b4	0.018609382
28	0xbdee437e	-0.11633967
29	0xbd0b9c4c	-0.034084603
30	0x3e43588c	0.19076747
31	0x3d20b315	0.039233286
32	0xbe67f4f7	-0.2265204
33	0x3e14b9d8	0.14524019
34	0xbcba9a6a	-0.022778708
35	0x3ce69630	0.028147787
36	0xbcf33f78	-0.02969335
37	0x3d804711	0.06263555
38	0xbdc4b36f	-0.09604537
39	0xbcc428c8	-0.023945227
40	0x3e23ca2d	0.15995093
41	0x3b284cc3	0.002568052
42	0xb9ad6b76	-0.00033077196
43	0x3e3ec5b6	0.18630108
44	0x3dd241bb	0.10266443
45	0x3d115a1c	0.035486326
46	0xbdc805a6	-0.09766702
47	0xbd929b71	-0.07158554
48	0x3d14360f	0.036184367
49	0xbc395c7b	-0.011313553
50	0xbe68928d	-0.22712155
51	0xbda5295b	-0.080645286
52	0xbd905b21	-0.070486315
53	0x3dcd7331	0.10031737
54	0x3dd88d38	0.1057381
55	0x3d4194aa	0.047260918
56	0x3cf275bb	0.029597154
57	0xbcf4b99b	-0.02987366
58	0x3d9233c8	0.07138783
59	0x3df450e3	0.119294904
60	0xbd733914	-0.059380606
61	0xbdb07d3c	-0.086176366
62	0xbe24de94	-0.16100532
63	0xbc334352	-0.010941343
64	0x3cc53e41	0.024077537
65	0x3d082f65	0.033248324
66	0xbd5b249b	-0.053501707
67	0x3e08a7a3	0.13345198
68	0xbe76b04c	-0.2409069
69	0x3ac10596	0.0014726396
70	0xbe0150cb	-0.12628476
71	0xbe402b28	-0.18766463
72	0xbd83b6d2	-0.064313546
73	0xbd9ab0ba	-0.07553239
74	0x3e0238c8	0.12716973
75	0x3d9a4920	0.07533479
76	0x3e351c4f	0.1768658
77	0xbd67466e	-0.05646365
78	0x3dd5ea04	0.104450256
79	0x3b5f1e59	0.0034045188
80	0xbddb0562	-0.10694386
81	0x3cfa5e7f	0.030562637
82	0x3d857ad0	0.06517565
83	0xbd871116	-0.06595056
84	0x3db3d1bf	0.0878024
85	0xbe35aff2	-0.17742899
86	0x3da6e81c	0.0814974
87	0xbdb95191	-0.09048761
88	0x3b4d9779	0.0031370802
89	0x3d15db5c	0.03658615
90	0xbdd9ac3a	-0.10628553
91	0x3dd356fc	0.10319325
92	0xbd93adcf	-0.07210886
93	0x3ded15eb	0.11576446
94	0xbe2b06fb	-0.16701882
95	0x3d87c1eb	0.06628784
96	0xbd11a7fb	-0.03556059
97	0x3ec43ecb	0.38329157
98	0x3e38dd62	0.18053201
99	0xbc93f4d4	-0.01806108
100	0xbe22ee97	-0.15911327
101	0xbcd88e95	-0.026435176
102	0xbe16dca5	-0.14732607
103	0x3d92ec89	0.07174022
104	0x3df71f6c	0.1206654
105	0xbe40ccbd	-0.18828101
106	0xbdd16174	-0.10223666
107	0xbe204a29	-0.1565329
108	0xbdf9ceba	-0.12197633
109	0x3df7f759	0.12107725
110	0xbde9bb00	-0.114126205
111	0x3d2584fd	0.04041003
112	0xbe24408f	-0.16040252
113	0x3d3bf9ec	0.04589264
114	0x3c9742c1	0.018464448
115	0xbe843275	-0.25819746
116	0xbe5e361f	-0.21700333
117	0xbe4ac5d3	-0.19802026
118	0xbe00bc19	-0.12571754
119	0xbd8fd700	-0.0702343
120	0xbdee3909	-0.11631972
121	0xbcf3f5a9	-0.029780226
122	0xbe078f0c	-0.13238162
123	0x3e204b6c	0.15653771
124	0x3e09138a	0.1338636
125	0xbc4863ee	-0.012230856
126	0x3e0aed6f	0.13567136
127	0x3ba100e1	0.004913435
128	0x3cc5b3dd	0.024133617
129	0xbc9411e8	-0.018074945
130	0xbdb17a3a	-0.08665891
131	0xbdb7271f	-0.08943009
132	0x3b667a68	0.0035168175
133	0x3dade29b	0.08490487
134	0x3b9dbf64	0.0048140753
135	0x3c95da0b	0.018292448
136	0xbd352a24	-0.04422964
137	0xbe2104ea	-0.15724531
138	0xbd516708	-0.05112365
139	0xbba919a3	-0.005160527
140	0xbc6dfd06	-0.0145256575
141	0x3d9dff63	0.07714727
142	0x3e1cbb57	0.1530584
143	0x3e00411e	0.1252484
144	0x3db6df1a	0.08929272
145	0xbc153f57	-0.00910934
146	0xbd4dd97a	-0.05025623
147	0x3c6d9e91	0.014503137
148	0xbd38384b	-0.04497556
149	0x3c9da7d9	0.019245075
150	0x3e0c8264	0.13721615
151	0xbdbea158	-0.09308118
152	0xbda4b5d3	-0.08042493
153	0xbe2754db	-0.16340964
154	0x3de58967	0.11207848
155	0xbe22aa41	-0.15885259
156	0x3b68cc7b	0.003552227
157	0x3d0ca592	0.034337588
158	0xbd117e11	-0.035520617
159	0x3d9868f8	0.07441896
160	0x3d34d4ca	0.044148244
161	0x3cef090a	0.029179115
162	0xbdcc1b20	-0.09966111
163	0xbe35544b	-0.17707936
164	0xbd6a0cd1	-0.05714113
165	0x3e4a5791	0.19759966
166	0xbcc3015e	-0.023804363
167	0xbd698359	-0.05701003
168	0xbd3128a4	-0.04325165
169	0xbde6f9d3	-0.11278119
170	0x3dd631ff	0.10458755
171	0x3d9667d6	0.07344024
172	0xbda5b3f9	-0.08090968
173	0x3c0b2bf4	0.008494366
174	0x3dd7cc3c	0.105370015
175	0xbcd0194e	-0.025402691
176	0x3c7da2bb	0.0154806925
177	0x3e4d3b9e	0.20042273
178	0x3e12f0bc	0.14349645
179	0xbd96bc91	-0.07360185
180	0x3e0ad6fe	0.13558576
181	0xbdce1911	-0.10063375
182	0xbc7fa341	-0.015602888
183	0xbd1271b7	-0.03575298
184	0xbd551c2e	-0.052028827
185	0xbd9dac1d	-0.07698844
186	0xbab28a10	-0.0013621468
187	0xbd86b55a	-0.06577559
188	0xbc990701	-0.018680098
189	0x3c704aaa	0.014666239
190	0x3dcde274	0.10052958
191	0xbdf6e55d	-0.12055466
192	0x3d52aa91	0.051432196
193	0x3d423c5e	0.047420852
194	0x3d0aff5f	0.033934947
195	0xbd2b3da0	-0.041806817
196	0x3d163ef5	0.036681134
197	0xbe5a6ae2	-0.21329835
198	0x3e0216db	0.12704031
199	0xbd1675a0	-0.03673327
200	0x3d0df376	0.03465601
201	0x3cedefd4	0.029045023
202	0xbe2f4b5d	-0.17118593
203	0x3e2a7a55	0.16648228
204	0xbdb8606f	-0.09002768
205	0xbe06bdef	-0.13158391
206	0xbcd0bc31	-0.025480362
207	0xbce81c6f	-0.02833387
208	0xbe1b6623	-0.15175681
209	0x3d978bc5	0.07399706
210	0xbe1e5e20	-0.15465593
211	0xbcdf968a	-0.027293462
212	0x3e0373e0	0.12837172
213	0x3e0b3752	0.13595322
214	0xbc2f4642	-0.010697903
215	0x3de79d11	0.11309255
216	0x3d3a4da3	0.045484196
217	0x3d067093	0.032822203
218	0x3e26e6e5	0.16299017
219	0xbde81783	-0.113326095
220	0x3e3476c1	0.17623426
221	0x3cf20951	0.029545458
222	0x3d336977	0.04380175
223	0x3e1413fe	0.14460751
224	0xbc33b90f	-0.010969414
225	0xbc71e834	-0.014764834
226	0x3ce31363	0.027719205
227	0x3da96e9b	0.082730494
228	0xbd47be97	-0.048765745
229	0xbc78a6a9	-0.015176454
230	0x3c39a8e4	0.011331771
231	0xbd5ab740	-0.053397417
232	0x3dac7f58	0.084227264
233	0xbc4710e9	-0.012150028
234	0x3e359f17	0.17736469
235	0xbd4f5d54	-0.050626114
236	0xbcd2b6f0	-0.025721997
237	0xbde45f72	-0.11151017
238	0x3dfe53bd	0.124183156
239	0x3ca37f9e	0.019958314
240	0x3cf94597	0.03042869
241	0x3d745983	0.059655678
242	0x3c3f70e0	0.011684626
243	0x3c9ee188	0.019394651
244	0x3c24a32c	0.010048669
245	0x3d56a3c9	0.05240229
246	0xbdbaa710	-0.09113896
247	0x3ca4a742	0.020099286
248	0xbd89639c	-0.06708452
249	0xbd3d8f53	-0.046279263
250	0x3de54944	0.11195615
251	0xbd8c41d4	-0.06848493
252	0xbd30c115	-0.043152887
253	0xbe2983a9	-0.1655413
254	0xbdfb0347	-0.122564845
255	0xbd6eb67c	-0.0582795

fc2.bias f4 [84]
0	0x3e4b9a1c	0.19883007
1	0x3e207703	0.156704
2	0xbdc80396	-0.09766309
3	0x3e3b1e5a	0.18273297
4	0xbda27a45	-0.07933477
5	0xbc87ba8c	-0.016568445
6	0x3ea41e62	0.3205443
7	0x3d6065a8	0.054784447
8	0x3db73106	0.08944897
9	0x3d5e954f	0.05434161
10	0x3e36a724	0.17837197
11	0xbe886e99	-0.2664688
12	0x3de1b72c	0.110212654
13	0xbe18a410	-0.14906335
14	0x3e6e60b8	0.23279083
15	0x3e4de158	0.20105493
16	0xbcdcaaf5	-0.026936987
17	0x3f014552	0.504964
18	0x3db7765b	0.089581214
19	0x3d09db1b	0.03365622
20	0x3e8ebf73	0.2788044
21	0xbdfabbe2	-0.12242867
22	0xba415a09	-0.0007375782
23	0xbe86a5ee	-0.2629847
24	0x3dc89243	0.09793522
25	0xbe1f0833	-0.15530472
26	0xbde752cc	-0.11295089
27	0x3defab1f	0.11702561
28	0x3d7dba7b	0.06194542
29	0x3e1fb984	0.15598112
30	0xbd97c24f	-0.07410108
31	0x3df6bae7	0.120473675
32	0x3c25db39	0.010123068
33	0xbd424abb	-0.04743455
34	0xbd579beb	-0.05263893
35	0xbe5ab90a	-0.2135965
36	0x3e3b7377	0.18305765
37	0xbd8206ce	-0.06348954
38	0xbe0e44ab	-0.13893382
39	0x3d4c845c	0.049930915
40	0x3e80ad68	0.25132298
41	0x3df7f1ac	0.12106642
42	0x3e46d767	0.19418107
43	0x3e8ff237	0.28114483
44	0x3e3972fd	0.18110271
45	0xbd14b5f8	-0.03630635
46	0xbcd99114	-0.026558436
47	0xbe7d10b7	-0.24713407
48	0x3e5eba5f	0.21750782
49	0xbda94f49	-0.082670756
50	0x3d15e434	0.036594585
51	0xbe8a4874	-0.27008402
52	0xbb4c7fa9	-0.003120402
53	0xbcef40f7	-0.029205782
54	0x3c328672	0.010896312
55	0xbd34cc5e	-0.044140212
56	0x3cb42697	0.021991057
57	0xbda2ec5d	-0.07955239
58	0x3ec6431d	0.38723078
59	0x3e432b2b	0.19059436
60	0xbe552630	-0.20815349
61	0xbd2552bf	-0.040362116
62	0x3de695c6	0.11259036
63	0x3e1985ab	0.14992397
64	0xbdb5804e	-0.08862363
65	0x3cbe700b	0.023246786
66	0x3d507629	0.050893936
67	0xbdbf367a	-0.093365625
68	0xbe0ad0d2	-0.13556221
69	0xbcfa097e	-0.030522104
70	0x3e3a72af	0.18207811
71	0xbe92749b	-0.28604588
72	0xbb01c5ba	-0.0019801692
73	0x3e2f6601	0.17128755
74	0x3e827758	0.25481677
75	0xbe2a82e8	-0.166515
76	0x3d85c210	0.06531155
77	0x3e05ab26	0.13053569
78	0x3e30a378	0.17249858
79	0x3e6e6230	0.23279643
80	0xbe53f4be	-0.2069883
81	0xbe3f00d9	-0.18652667
82	0xbcab6f32	-0.020927045
83	0xbca3ccf7	-0.019995196

fc3.weight f4 [10, 84]
0	0xbebc70d3	-0.36804828
1	0xbee1b783	-0.4408532
2	0x3dc500c8	0.0961929
3	0x3d863ac4	0.065541774
4	0xbe29eaf1	-0.1659353
5	0xbcc6f8a4	-0.024288483
6	0x3c382d67	0.0112412935
7	0xbdb573fb	-0.08860012
8	0x3e3d3d6a	0.18480459
9	0xbe228c55	-0.15873845
10	0xbe19676e	-0.14980862
11	0x3db96b59	0.09053678
12	0x3d84ae37	0.06478541
13	0x3e32a4a9	0.17445625
14	0x3e4ead38	0.20183265
15	0x3da7c7b5	0.08192388
16	0x3e4e12e5	0.20124395
17	0xbe8be13a	-0.27320272
18	0x3d58cafc	0.052927956
19	0x3d3c2d56	0.045941673
20	0x3dc84b69	0.09780008
21	0x3e1bedec	0.15227479
22	0x3e0a76f9	0.13521947
23	0x3de79d1b	0.11309262
24	0xbeb2ce3b	-0.34922966
25	0x3e7bbd0e	0.24583837
26	0x3dbfe040	0.09368944
27	0xbe1e62d3	-0.15467386
28	0xbdc3af6e	-0.09554945
29	0xbe540222	-0.20703939
30	0x3e7dd3fb	0.24787895
31	0xbe97c092	-0.29639107
32	0xbdfc0bb6	-0.12306921
33	0x3db19cf9	0.08672518
34	0xbe910ca6	-0.28329962
35	0x3e13cd28	0.1443373
36	0x3dc198b1	0.09452952
37	0xbd293b43	-0.041316282
38	0xbe6ce2c6	-0.23133382
39	0x3e89a438	0.268831
40	0x3e83a942	0.2571507
41	0xbe8ba745	-0.27276054
42	0xbe3d912f	-0.18512414
43	0x3e30e826	0.17276058
44	0x3e0b5502	0.13606647
45	0x3e5e54aa	0.21711984
46	0x3deb0aac	0.11476645
47	0xbde868a9	-0.11348087
48	0xbea7729c	-0.32704628
49	0x3d183b1f	0.037165757
50	0xbd550928	-0.052010685
51	0xbe2b1a2d	-0.16709204
52	0xbe6a9ea3	-0.22912078
53	0x3ea198c2	0.31561857
54	0x3e875fd8	0.2644031
55	0x3eeca84e	0.46222156
56	0xbeb115b3	-0.34586868
57	0xbcfca675	-0.030841092
58	0xbe4c012c	-0.19922322
59	0xbead7188	-0.3387568
60	0x3ec4e981	0.384594
61	0x3ed3419b	0.4126099
62	0xbd863d4f	-0.065546624
63	0x3ec39464	0.3819915
64	0x3d89358a	0.06699665
65	0xbe2c41af	-0.16821931
66	0x3eda507c	0.4263953
67	0x3eaf5923	0.34247693
68	0x3d1a2a0d	0.03763776
69	0x3d6256a0	0.055258393
70	0xbe724110	-0.23657632
71	0xbd556548	-0.052098542
72	0xbd616341	-0.055026297
73	0xbe4a2dea	-0.19744077
74	0xbe4d4ddc	-0.20049232
75	0x3e68dd0e	0.22740576
76	0xbe4aa741	-0.19790365
77	0xbba9f46d	-0.0051866085
78	0x3e3ebe31	0.1862724
79	0x3e1c771f	0.15279816
80	0xbdaf139a	-0.085486606
81	0x3d2239cc	0.0396059
82	0xbe9c5caa	-0.30539447
83	0x3cbcd35b	0.02305
84	0xbda8bd7e	-0.08239268
85	0x3dca76c5	0.09885935
86	0xbe54e2ba	-0.20789614
87	0x3e5a42b8	0.21314514
88	0x3cdd5976	0.027020197
89	0xbcfc6c6a	-0.030813415
90	0xbe7aa345	-0.24476345
91	0x3e8eec37	0.27914593
92	0xbe309aaf	-0.17246507
93	0xbe7bc33b	-0.24586193
94	0x3d514c6a	0.051098265
95	0x3e90a95c	0.2825421
96	0x3d9a1202	0.07522966
97	0x3c512cdb	0.012767042
98	0xbe0ca058	-0.13733041
99	0xbe4d4c28	-0.20048583
100	0x3e1263b9	0.14295854
101	0xbea17c21	-0.31540015
102	0xbed5f6a9	-0.4178975
103	0xbe07b613	-0.1325305
104	0xbefb0e69	-0.49034432
105	0x3ce273c0	0.027643085
106	0xbe0d28b5	-0.1378506
107	0x3e573e97	0.2101997
108	0x3e5e5bcb	0.21714704
109	0x3ecc7212	0.3993078
110	0x3dac5c89	0.08416087
111	0xbd1e75b7	-0.03868648
112	0xbd806275	-0.06268779
113	0xbe3be6f0	-0.18349814
114	0x3e0df042	0.13861182
115	0xbed5a06a	-0.4172395
116	0x3d708499	0.058720205
117	0x3e4b9126	0.19879588
118	0x3e5407d8	0.20706117
119	0xbea4920e	-0.3214268
120	0xbb162ffc	-0.0022916785
121	0x3dd5e653	0.104443215
122	0x3efb1a60	0.4904356
123	0xbeca2511	-0.39481404
124	0x3e20d490	0.15706086
125	0xbe977034	-0.29577792
126	0xbf15bdec	-0.5849292
127	0xbe86ec17	-0.26351997
128	0x3dcfb893	0.101426266
129	0x3c12dad3	0.008963305
130	0x3e536780	0.20644951
131	0x3ebda264	0.37037957
132	0xbe952fec	-0.29138124
133	0xbd14c276	-0.036318265
134	0x3e7844fb	0.24245064
135	0x3eb209fc	0.34773242
136	0x3e2038ae	0.15646622
137	0x3e8018b0	0.25018835
138	0xbd3c4e10	-0.045972884
139	0xbe657e82	-0.2241154
140	0x3e707555	0.23482259
141	0xbe37fcb9	-0.179675
142	0xbe973f65	-0.29540554
143	0xbdc3c066	-0.095581815
144	0xbdac1305	-0.08402065
145	0xbe942dca	-0.28941184
146	0xbdc95335	-0.098303236
147	0xbe6e6554	-0.23280841
148	0xbdc6577b	-0.09684654
149	0xbdb2ca68	-0.08730012
150	0x3cb1376f	0.021632878
151	0x3e839df6	0.25706452
152	0xbe575ee5	-0.21032293
153	0x3eb06132	0.34449154
154	0xbe0bf346	-0.1366702
155	0x3e2117cf	0.15731739
156	0xbd892fde	-0.06698583
157	0xbeea6f1e	-0.457879
158	0x3e17b1ba	0.14813891
159	0x3e79de9d	0.24401326
160	0xbe7f9f0d	-0.24963017
161	0x3e2baf71	0.16766144
162	0x3e4c86c8	0.1997329
163	0xbf05994f	-0.52187055
164	0xbc4a4c7b	-0.012347336
165	0x3ce89b10	0.028394252
166	0x3cbe74ed	0.023249114
167	0x3e1f4be2	0.15556291
168	0xbd9139dd	-0.07091115
169	0x3d193a60	0.037409186
170	0xbe66ebfa	-0.22550955
171	0xbeba54ba	-0.36392766
172	0x3f1b6d29	0.6071344
173	0xbe421316	-0.18952593
174	0xbe9375e0	-0.2880087
175	0x3e3229a9	0.17398705
176	0x3d3a035c	0.04541336
177	0x3e32bb03	0.17454152
178	0x3e836aa1	0.2566729
179	0xbe08e42f	-0.13368295
180	0xbe94a79d	-0.2903413
181	0x3eb2fb28	0.34957242
182	0xbe9dfb79	-0.3085592
183	0xbeaa9908	-0.3331988
184	0xbe061269	-0.1309296
185	0xbc4d31df	-0.012524097
186	0x3d8f67fb	0.070022546
187	0xbe140fef	-0.14459203
188	0x3ef7fa76	0.48433274
189	0x3ea31ee2	0.318595
190	0xbea18dc6	-0.31553477
191	0xbe1aa6ad	-0.15102644
192	0x3dfe7693	0.1242496
193	0xbc8ccc55	-0.017187277
194	0x3ec6a901	0.38800815
195	0xbe2c4ae7	-0.16825448
196	0x3e9d237f	0.30691144
197	0xbe2447ed	-0.16043063
198	0x3d019ee6	0.031645678
199	0x3d93b32b	0.07211908
200	0xbd9b070f	-0.07569706
201	0xbd995fa5	-0.07488946
202	0x3e5f5c31	0.21812512
203	0x3eb60361	0.35549453
204	0x3eacc81d	0.33746424
205	0x3e779a1d	0.24179883
206	0x3e218b6a	0.15775838
207	0x3e8f7248	0.28016877
208	0x3eb31da8	0.34983563
209	0x3dc71a21	0.097217806
210	0xbe0bd754	-0.1365636
211	0x3e9cbdad	0.3061346
212	0xbea96ec5	-0.33092323
213	0x3ebed4c6	0.37271708
214	0x3de33a04	0.1109505
215	0xbc78a6c0	-0.015176475
216	0xbe31fc39	-0.17381372
217	0xbdd4180f	-0.10356151
218	0xbe16d07b	-0.14727966
219	0x3e092c4f	0.13395809
220	0xbe3b53b2	-0.18293646
221	0xbd7cc533	-0.0617115
222	0xbe0a4d16	-0.13505968
223	0x3db82ad9	0.089925475
224	0x3dc946a5	0.098279275
225	0x3e879c7c	0.26486576
226	0x3e8f80e8	0.28028035
227	0x3defe98b	0.11714467
228	0x3e045f4b	0.12926976
229	0x3f0455a2	0.51693165
230	0xbe6c7d0c	-0.23094577
231	0xbe491d77	-0.19640146
232	0xbdd6d6bf	-0.10490178
233	0x3e7b4a8c	0.24540156
234	0x3de3be07	0.11120229
235	0xbd4c9eaa	-0.049956
236	0x3eeda9ac	0.46418512
237	0xbe41e113	-0.18933515
238	0xbe1c95d2	-0.15291527
239	0xbea6bb33	-0.32564697
240	0x3dd24219	0.102665134
241	0x3d913317	0.07089823
242	0x3c9a2778	0.018817648
243	0x3d3111c5	0.043229837
244	0x3e6d385c	0.2316603
245	0xbecf7cf3	-0.40525016
246	0xbe0935f5	-0.13399489
247	0x3d10989a	0.035301782
248	0x3dc63884	0.09678748
249	0xbe7f8ace	-0.24955294
250	0x3e3cf920	0.18454409
251	0xbddefa57	-0.10887592
252	0x3dfaf803	0.12254336
253	0x3e522189	0.20520605
254	0xbcd6dd00	-0.026228428
255	0xbede8926	-0.4346401

fc3.bias f4 [10]
0	0xbdd636ec	-0.10459694
1	0xbf1a3e84	-0.6025164
2	0x3dec12ba	0.11527009
3	0x3c0ac45a	0.008469665
4	0x3f4272c4	0.7595637
5	0xbd7e1cdc	-0.06203924
6	0x3d625564	0.055257216
7	0xbe8711b5	-0.26380697
8	0x3f057263	0.52127665
9	0xbeb3be8f	-0.35106322
