HW1/LENET_params_ADAM.pkl (torch_old, 249583 bytes, 10 tensors)

conv1.weight f4 [6, 3, 5, 5]
000000 d3 9f 4b be 5d dd 69 3e bc f0 87 bd 77 e7 02 be
       -0.19885187 0.2283835 -0.06637713 -0.1278361
000010 26 4b 1f 3d 48 59 a4 3c 52 e0 b4 3e 35 20 74 be
       0.038890027 0.020062104 0.35327393 -0.23840411
000020 47 76 a6 be 90 31 f8 3d 24 2e 0f bb 2d c3 5f 3e
       -0.32512113 0.12118828 -0.002184757 0.21851797
000030 2c 2d f4 be 04 dc 0c be ba 16 ab 3e 1e f4 b0 bd
       -0.47690713 -0.13755804 0.33415776 -0.08640312
000040 1c ba 69 3e e2 3f 00 bf c6 0d 36 3e 86 ca 23 3e
       0.22824901 -0.5009748 0.17778692 0.15995225
000050 7b 55 8b bd 84 dd 6d 3d 3c 23 64 be 8f 9e 26 3e
       -0.068034135 0.058072582 -0.22279066 0.16271423
000060 27 e8 19 3e 14 c2 6a bc 8a 8a 89 3e 01 7f e4 3c
       0.15029965 -0.014328498 0.2686351 0.027892591
000070 25 23 0b be 89 c7 90 b9 7e 53 ad bc e5 21 d0 3e
       -0.13587625 -0.00027614486 -0.021157976 0.4065086
000080 bb eb 1b be 6a c9 7f be 24 4c 61 3e 12 ae 9b 3d
       -0.15226643 -0.24979177 0.22001702 0.07601561
000090 6a 9c b0 3e 6e 95 fd be a8 b3 8a be c7 e0 a7 3e
       0.34494334 -0.49528068 -0.27090192 0.3278868
0000a0 6e 53 26 bd 72 4c ce 3d 2c 6d d2 be 01 78 0a 3c
       -0.04060691 0.100731745 -0.41098917 0.008451463
0000b0 d7 b3 27 3e 70 fb b7 39 a2 6c c7 3d f9 cc 7a be
       0.16377197 0.00035091816 0.09737517 -0.24492253
0000c0 b6 64 9f 3d b1 b0 c4 3c e9 e2 8b bd f9 d2 c3 3c
       0.07782881 0.024010034 -0.06830389 0.02390431
0000d0 7f d2 41 3c df c1 05 bd 46 21 d5 bc 35 a8 aa bd
       0.011829971 -0.032655593 -0.026016843 -0.08332864
0000e0 0a 8e 12 3e bc 45 d9 bd e1 63 80 be 98 8e 98 3d
       0.14311996 -0.10609004 -0.25076202 0.074490726
0000f0 ad 38 8e bc d6 dc 34 3e c9 e3 86 be 2a 35 06 be
       -0.01736101 0.17662367 -0.2634566 -0.13106218
000100 42 15 84 3e 70 5c ed bd f3 05 63 3e 14 ac b9 be
       0.25797468 -0.11589897 0.22170238 -0.36264098
000110 b4 cb 81 3e d2 47 ef 3d ad fb 9c 3a f2 7e 28 3e
       0.25350726 0.116836205 0.0011976861 0.16454676
000120 c4 9e 57 be bd 00 93 3e 2a 92 9e bd fc 78 fc bd
       -0.21056658 0.287115 -0.07742722 -0.123277634
000130 88 dc c1 bb aa b0 74 3b 30 e5 4f bd a8 48 55 bd
       -0.005916182 0.0037336745 -0.05075568 -0.052071244
000140 43 6f f6 3c 1d 0f d8 bd 23 8a 90 be b0 be 8a bc
       0.03008235 -0.10549758 -0.2823039 -0.01693663
000150 d0 9b 88 3c a8 c1 6f bd 2b 72 69 be 70 bd be be
       0.01667586 -0.058534294 -0.22797458 -0.37253904
000160 5a 8c b8 be cf 44 00 bd 26 48 4c bb 92 40 05 be
       -0.3604458 -0.03131562 -0.0031170934 -0.13012913
000170 a6 2f 51 be ed c8 25 be 2e ff 93 3d 2f fd 85 3d
       -0.20428333 -0.16189928 0.07226406 0.065424316
000180 dd e6 16 3d 99 ea ab bc 59 3c 15 be 4c d0 fe 3d
       0.036841262 -0.020985888 -0.14573802 0.12442073
000190 ef 1c 85 bd 23 c8 99 3b e2 96 03 ba 5a de ac bd
       -0.06499659 0.0046930476 -0.0005019737 -0.08440848
0001a0 40 ca 94 bc 04 99 75 bc 57 4b 06 3e 9d b7 e2 3d
       -0.018162847 -0.014990095 0.13114677 0.11070178
0001b0 0d 95 7c bd 98 c6 9d bd 76 33 00 3c e2 00 ec 3a
       -0.061665583 -0.077038944 0.007824769 0.0018005634
0001c0 91 df c7 bd 96 53 76 3b ee 56 c9 3d 07 67 b2 bd
       -0.09759439 0.0037586442 0.09831034 -0.08711057
0001d0 8b 20 85 be b1 75 ac 3d d8 f9 66 bc dd b0 10 be
       -0.2600139 0.08420885 -0.014097653 -0.14129968
0001e0 ee e5 11 3e 86 14 e6 bd 13 53 06 bd 13 14 96 3d
       0.14247867 -0.11234383 -0.03279407 0.073280476
0001f0 e3 dc 1a be 18 26 12 be 5b e3 ae 3d 4d 74 94 3d
       -0.15123324 -0.14272344 0.08539458 0.07248745
000200 2e 83 8b 3d 39 5f e5 3d 2e 41 61 3e 6c d6 af 3e
       0.0681213 0.11199803 0.2199752 0.34343278
000210 b7 e3 9a 3e 86 00 96 3e 7a 9f 71 bc 23 6a 4b bd
       0.30251858 0.29297274 -0.014747495 -0.049661767
000220 43 ff 65 3d a8 5f 5c 3e db db 88 3d df b1 11 3e
       0.05615164 0.21520865 0.06682559 0.14228009
000230 f1 6c 1c be af db b5 bd a9 99 26 3e ca 5e dd 3d
       -0.15275933 -0.08879792 0.16269554 0.10809095
000240 da 6b 82 3d 73 2c 8d bd 30 4e 95 3d 27 ce 20 3e
       0.06368227 -0.06893244 0.07290304 0.15703641
000250 d5 ad 2f 3e 9b 90 cd 3d 93 23 98 bd 12 f4 8f bc
       0.17156155 0.10037347 -0.0742866 -0.017572436
000260 d8 0a c4 3c a8 00 1a 3d 97 38 50 be 22 d2 b0 3c
       0.023930952 0.037598282 -0.20334087 0.021584574
000270 3f 1f 28 3e f3 71 a7 3e c2 ee 38 3e c8 be 11 3e
       0.1641817 0.32704124 0.18059829 0.14232934
000280 34 ad 9f 3e ce 51 54 3d 14 01 ad 3d 80 04 a4 3e
       0.3118683 0.051835828 0.08447471 0.32034683
000290 50 4b 8d 3e fc 7e 58 3e ab 92 09 be 30 a8 93 ba
       0.2759652 0.2114219 -0.13434856 -0.0011265334
0002a0 59 6a ac 3e 76 a0 ac 3e 0e dd 73 3d c6 48 2e be
       0.33674887 0.33716172 0.059536986 -0.17019948
0002b0 99 64 84 be ff 5e b8 3c 72 98 0b 3e 5e ad 56 3d
       -0.25858 0.022506235 0.13632372 0.05241143
0002c0 5b ca ae 3a 8d b9 e3 bd 5e a8 3b bd cc 75 7b bc
       0.0013335453 -0.111193754 -0.045814864 -0.015347909
0002d0 75 d4 1d be ac 8a c3 be 5f 94 77 be 86 8b e0 3c
       -0.15413077 -0.38191736 -0.24177693 0.02741028
0002e0 f5 5f f0 bd 1d fd f4 bd 07 25 b6 be 9b aa c1 be
       -0.11737052 -0.1196234 -0.35575125 -0.37825474
0002f0 f0 1d fb bd d2 96 c2 bc 6e c2 0e be 62 2a a3 be
       -0.122615695 -0.023753557 -0.13941357 -0.31868273
000300 0d 40 bf be 04 f4 2e be a4 a3 3b 3e 25 3b bb 3d
       -0.37353554 -0.17085272 0.18324143 0.0914214
000310 31 37 4a be f5 be de be 2b 47 28 be f0 5b fc 3d
       -0.19747616 -0.43505064 -0.16433398 0.12322223
000320 c6 1f c1 3d 27 55 b4 3d 5e de b2 3d 55 23 8f 3d
       0.094298884 0.08805304 0.087338194 0.06989161
000330 a1 9d 92 bd 5e 6d b4 3d 47 12 dd 3d e7 8b 91 bd
       -0.071589716 0.08809923 0.10794502 -0.071067624
000340 0b d2 09 3e 49 7b 58 3d 9b f5 b3 3c e9 dc c0 bd
       0.13459031 0.05285195 0.0219677 -0.09417135
000350 9c 4f 19 bc a9 a8 90 bd 7f 30 08 3e 97 a9 a0 3d
       -0.009357359 -0.07063419 0.1329975 0.07844847
000360 45 a9 1e bd c8 76 48 be 19 6b c2 3d 1f 7b c7 3d
       -0.038735647 -0.19576561 0.094930835 0.0974028
000370 90 ef 65 3e 8e 4f 8a 3b ce dd 82 be e3 bd 24 be
       0.22454667 0.0042209094 -0.2555985 -0.16088061
000380 35 14 58 bc 3d 2c c1 3d 90 b9 ec 3d 08 a0 60 bd
       -0.0131884115 0.09432266 0.11558831 -0.054840118
000390 37 25 fc bb 1a bd 0e 3c 20 7a 1f be 62 54 55 bc
       -0.007694866 0.0087120775 -0.1557393 -0.013020607
0003a0 62 2b 0b bd 39 53 df bc 8e 53 2e bd 62 bd e0 bd
       -0.03397692 -0.027261363 -0.042560153 -0.10973622
0003b0 7a 00 44 3d 75 0c e7 bd 09 64 56 bd 90 90 2f bd
       0.047852017 -0.11281673 -0.052341495 -0.042862475
0003c0 5b 2a 1b 3d a6 28 95 3d 93 6e 0d 3e 25 db fa bc
       0.03788219 0.07283144 0.13811712 -0.030622074
0003d0 54 50 be bd a9 07 96 3d c8 00 85 3d d4 c2 aa bd
       -0.09292665 0.0732568 0.0649429 -0.08337942
0003e0 7a 49 cc bc ef 24 46 3d 71 3c 69 be 60 2f a9 bd
       -0.02493738 0.048375066 -0.22776963 -0.08260989
0003f0 3b 22 33 bd 64 58 aa bb 1b f1 d4 bd 39 f1 2e 3d
       -0.043733817 -0.0051985253 -0.1039755 0.042710517

conv1.bias f4 [6]
000000 6f fa 88 bd 14 c3 b5 3e ff eb 68 be 9e ef 5b 3e
       -0.066883914 0.35500395 -0.22746275 0.21478125
000010 74 1c 04 be d4 6b 86 bd
       -0.12901479 -0.06563535

conv2.weight f4 [16, 6, 5, 5]
000000 2a 21 6a 3d 4e b4 5f be 5c e3 7c be 0f c8 9e be
       0.057160534 -0.21846125 -0.24696106 -0.31012008
000010 b2 0a 42 3d 43 6f b1 be 7e 04 01 be 37 56 e2 bd
       0.04737348 -0.34655198 -0.1259937 -0.110516004
000020 86 f2 37 bc 46 47 64 bc 8d b6 88 be c7 d1 0a be
       -0.011227256 -0.013933009 -0.26701775 -0.13556586
000030 34 9b 29 3e ef 0b 91 bd c7 b1 d3 bd c3 80 84 3d
       0.16563112 -0.07082354 -0.10336643 0.06469872
000040 d8 b7 d9 bd 1d 42 44 be d7 b3 b9 bd 19 b2 ea bb
       -0.106307685 -0.19165845 -0.09067505 -0.007162344
000050 fe ef a8 3e 04 18 b5 3e e9 45 e3 bd 19 1c 3e 3d
       0.329956 0.35369885 -0.11097319 0.046413515
000060 b4 d1 22 3d 69 b7 3c bd f3 1b a4 be 95 55 5d be
       0.03975077 -0.04607335 -0.32052574 -0.21614678
000070 df d5 86 be bb 44 03 3d 25 1f ae be 55 e7 09 be
       -0.26335046 0.03204797 -0.34008136 -0.13467152
000080 08 d0 5c 3c ab 55 24 3e 2e 9b 84 3d 21 96 66 be
       0.013477333 0.16048305 0.06474911 -0.22518207
000090 50 76 c6 3d 7e fa 83 be ed a7 0f 3b 0c 73 49 3d
       0.09690535 -0.25777048 0.002192016 0.049181983
0000a0 2c b1 76 bc 07 66 d4 3d 99 dc d6 bd a9 96 3a bd
       -0.0150568895 0.10371023 -0.104912944 -0.045553837
0000b0 ef c6 b2 3d ec 4d 21 3c 8f 3d 90 3d db 00 91 3c
       0.0872935 0.009845238 0.07042991 0.017700603
0000c0 cb f4 20 3e a7 87 46 3e 22 bb 2f 3a aa f6 56 be
       0.15718381 0.19387685 0.0006703605 -0.20992532
0000d0 30 72 05 3c 12 ca 3a 3e 10 f3 9e 3e 77 02 72 bd
       0.0081449 0.18241146 0.31044817 -0.059084382
0000e0 4c 35 cf 3e 07 6b a4 3e d0 40 68 3e 4b a6 15 3e
       0.4047035 0.32112905 0.22680974 0.14614217
0000f0 b2 30 b0 3c ca d6 6b 3e 83 a5 33 3e 18 e7 c0 3d
       0.021507595 0.23031154 0.17543606 0.09419078
000100 a3 df 89 bc f1 76 9f 3e 85 99 8f bc 1d 36 6d be
       -0.016830271 0.31145433 -0.017529259 -0.23165174
000110 33 3f 6f bd 55 64 8b bd 32 f9 1c 3e 84 97 85 be
       -0.05840988 -0.06806246 0.15329435 -0.2609216
000120 28 28 7e 3d d5 cd 76 be 48 10 47 bd 3b f0 3f be
       0.062050015 -0.24101956 -0.04859951 -0.18743984
000130 65 90 90 3e 9c 51 52 3e 7c e3 6a 3d 4b dc 1d 3d
       0.28235164 0.20538944 0.057345852 0.038540166
000140 31 2e 1c be 8d 5e 37 3d 26 08 e1 bb 31 f9 be bc
       -0.15251996 0.044767905 -0.0068674264 -0.023312183
000150 3b 87 91 3e 6d 86 51 3e 07 52 e5 bd 2f d9 8e 3d
       0.28423485 0.20461436 -0.11197286 0.06975018
000160 bc 9e 2c 3d e5 57 1b bc b1 09 42 3e 9f a0 0d be
       0.04214357 -0.009481405 0.1894901 -0.13830803
000170 93 a9 e0 bc 86 ca 22 be 6f 05 78 3d 99 d5 ce bc
       -0.02742461 -0.15897569 0.060552057 -0.025248336
000180 39 8d ed bc 95 6b e7 bc 29 53 27 be 34 bc 3f be
       -0.028998004 -0.028249541 -0.16340317 -0.18724138
000190 04 87 93 be 13 fc 92 be 26 8d 3e 3e d4 b9 24 3e
       -0.28813946 -0.28707942 0.18608531 0.16086513
0001a0 d3 0a 92 3e 00 6f 32 be af 29 05 3e fe c2 15 3e
       0.28523883 -0.17425156 0.13004182 0.14625165
0001b0 65 a1 41 bd 00 5e 2d 3e 3b 9a 4e 3e 36 8c 19 3e
       -0.04727306 0.1693039 0.20176022 0.14994892
0001c0 31 65 4e 3e ab a2 b7 bd a6 c4 31 bd e4 76 67 3c
       0.20155789 -0.08966573 -0.04340043 0.014127467
0001d0 ef 9b 59 3e f1 3c 08 3e 02 e5 a7 3e b8 65 f3 3c
       0.2125089 0.13304497 0.32791907 0.02971159
0001e0 d4 b7 22 3e e7 57 42 3e 60 de 1b 3e a4 c5 21 3b
       0.15890437 0.18978845 0.15221548 0.0024684453
0001f0 13 ac ac be ed fe c0 bc 89 44 5c bd 8b 7c b8 3e
       -0.33725032 -0.023559058 -0.053776298 0.3603252
000200 47 9c 36 3c 8c 22 d0 bd 30 95 5b 3e 05 8e 8d bd
       0.011145658 -0.10162839 0.2144363 -0.06911854
000210 23 25 84 bd 2a 1f 8a bc a6 b0 7d 3c bf bf d3 bd
       -0.06452396 -0.016860563 0.015484011 -0.10339307
000220 2f c3 ea 3c 27 46 92 bd 28 81 35 bc 8c 8d fe 3d
       0.028657524 -0.07142287 -0.0110781565 0.12429342
000230 74 23 b8 be be bf 87 3e 66 25 c1 bd a8 c1 12 be
       -0.3596455 0.26513475 -0.09430961 -0.14331686
000240 1a 72 2e 3e cc 60 9f be 08 b7 a3 3c 52 23 27 be
       0.17035714 -0.31128538 0.019984737 -0.16322067
000250 ed 59 f4 bd 6a 38 f7 3c 3c b7 10 be 94 11 37 3d
       -0.119312145 0.030178268 -0.14132398 0.0446945
000260 31 1a 31 be 65 67 44 3d 9b 87 66 bd 5d 24 ce 3c
       -0.17295147 0.047950167 -0.056281667 0.025163824
000270 4b 65 5b be 05 11 96 be 5d e9 e1 bd 84 ed 9a bd
       -0.21425359 -0.2930986 -0.11030839 -0.07564834
000280 65 1e e5 bd 6b 94 f3 be 82 bf 70 bd 73 b9 35 bd
       -0.11187438 -0.4757417 -0.058776386 -0.04436631
000290 65 f9 e1 bd a1 6a b6 bc a2 2f 22 bd 82 47 27 3e
       -0.11033896 -0.022267641 -0.039596207 0.16335872
0002a0 65 6f 25 bd 9b 01 cd 3d 7d e8 fd bd a2 65 a2 3d
       -0.040389437 0.10010072 -0.12397859 0.07929541
0002b0 28 01 39 3e 54 8f 79 3c 1e 43 26 bd 42 b9 a2 3c
       0.18066847 0.015231926 -0.04059135 0.019863728
0002c0 d5 67 97 bc 28 46 dc 3d 58 41 9e 3d 05 9f b1 3d
       -0.018482128 0.10755569 0.07727307 0.08672909
0002d0 32 e3 0d 3e 11 e6 4f bd 8a b9 d8 bc 0a b1 95 3d
       0.138562 -0.050756518 -0.02645566 0.07309158
0002e0 a2 bb 1f bc 52 81 77 be fe 95 bb bd c6 23 48 be
       -0.009749325 -0.24170426 -0.09159468 -0.19544896
0002f0 ab 0c d8 bd b9 b3 19 3c 9c da ac bd 46 8a 93 bd
       -0.10549291 0.009381228 -0.08440134 -0.07204108
000300 90 e9 c1 3d e8 88 a0 3d 3f 1e 8c 3e fb 8a d6 bd
       0.09468377 0.07838613 0.27366826 -0.10475727
000310 c0 4d 70 be 6e 57 b1 bd 88 60 00 bd 04 1f 89 3c
       -0.2346716 -0.08659254 -0.03134206 0.016738422
000320 9d 48 32 be 2d 97 85 3d 3a 86 c2 bd 80 9d 40 3e
       -0.17410512 0.06522975 -0.09498258 0.18810081
000330 d2 5d da bd 3f 15 03 3e 1b 55 83 3e 6f 92 9e 3e
       -0.10662426 0.12801073 0.25650868 0.30971095
000340 ec 33 82 3e 39 dc 96 3e 22 fd 1e 3e 9a af d5 3b
       0.25430238 0.29464892 0.1552625 0.0065211775
000350 d5 50 95 3c 22 e8 96 3d 9b 64 11 bd 8b 53 b6 3e
       0.01822702 0.073684946 -0.035496335 0.35610613
000360 50 cb 36 3c 85 7a 1b 3e f8 be 10 bd 3e a2 92 be
       0.011156872 0.15183456 -0.035338372 -0.28639406
000370 a4 d8 67 be 0f 22 ad be a9 bd 52 be c0 02 12 be
       -0.22641236 -0.33815047 -0.20580162 -0.14258862
000380 75 67 8b be e3 23 2a 3e b4 34 19 3e f2 ed b7 3e
       -0.2722737 0.16615252 0.14961511 0.35923725
000390 a4 8b 74 3d 8f 0d b8 be c1 b3 2f 3e 53 ef ff bd
       0.059703484 -0.35947844 0.17158414 -0.12496819
0003a0 29 fc 53 bd a0 c8 06 bd 84 dd 2e be d7 f0 61 be
       -0.05175415 -0.032906175 -0.17076689 -0.2206453
0003b0 79 03 3a be cf 84 cb be 28 94 59 be a8 52 b2 3d
       -0.18165387 -0.39749762 -0.21247923 0.08707172
0003c0 1c 57 12 3d d5 80 9f 3d 35 c7 22 be 39 75 eb 3d
       0.035727605 0.07788245 -0.15896304 0.11496968
0003d0 93 65 8d 3e f4 79 bb 3e e7 f2 87 3e a0 c9 99 3e
       0.27616557 0.3661648 0.26552507 0.3003664
0003e0 51 85 93 3e 5b dd 1b 3e d4 bf 04 3c 98 28 db 3d
       0.2881265 0.15221159 0.008102376 0.10701102
0003f0 1e 47 8d bd fb ff 6a be 36 55 da bd df 12 79 bd
       -0.0689833 -0.22949211 -0.10660784 -0.060809013

conv2.bias f4 [16]
000000 f2 19 22 be 1a 36 b9 be 53 1b 65 3d f8 74 e9 be
       -0.1583021 -0.3617409 0.05593426 -0.45597053
000010 b9 29 f8 be 77 a9 48 3d c5 83 d1 3e 28 79 cf 3b
       -0.48469332 0.04898974 0.40920845 0.0063315816
000020 35 d7 38 bf 68 4c eb 3e 7b e8 46 be 71 11 12 3e
       -0.7220338 0.4595673 -0.19424622 0.14264466
000030 29 ac 54 be 78 4e 06 bf 12 38 9f 3e 07 d1 fa 3e
       -0.20768799 -0.52463484 0.31097466 0.489876

fc1.weight f4 [120, 400]
000000 ca f5 f9 bc 19 8c 79 bd 97 8b 9b 3c 92 8c f6 3c
       -0.03051271 -0.060924623 0.01898746 0.030096326
000010 2c 6e 36 bd 26 6a 02 bd b4 4d 24 bd 21 00 90 3c
       -0.04453866 -0.031839512 -0.040113166 0.017578186
000020 26 b5 7b bd 76 cb b7 bc 38 0e 04 3d 92 ec b4 3c
       -0.061452053 -0.022435885 0.032240123 0.022085462
000030 5d b2 59 bd f7 24 a5 3c 11 14 c5 bc 76 11 0d bc
       -0.053148616 0.020159228 -0.02405742 -0.00861012
000040 e0 be 14 3c 5a 8c d5 3c 46 91 47 bc 3e d7 76 bd
       0.009078711 0.026067901 -0.012180632 -0.060263865
000050 06 bd 30 bc 52 dd d5 3c 99 d2 a8 bb 3f 40 0d bd
       -0.010787254 0.02610651 -0.0051520583 -0.034485098
000060 62 53 74 bc aa d7 bd bc d5 9b 8c bc d7 3b 01 3c
       -0.014912458 -0.023174126 -0.01716415 0.007887802
000070 3f 16 85 3b 47 ed 2b bc f6 34 f3 bc ae 12 71 bc
       0.00406149 -0.010493583 -0.02968834 -0.014713926
000080 cd b5 b5 ba 65 d4 52 bd be dd 1d 3c a9 05 28 bd
       -0.0013863385 -0.051472086 0.009635387 -0.041021023
000090 07 8b 84 3c f6 cc e3 3c e5 3e 27 3d 4b 30 52 bd
       0.016179575 0.027807694 0.040831465 -0.051315587
0000a0 a5 a6 13 bd 1c 78 2b bd 93 11 b0 bc 6c e1 a0 3c
       -0.036047596 -0.041862592 -0.021492755 0.01963874
0000b0 d1 0a bd bc 9a 6b a9 3c ef 71 49 bd 78 88 28 bd
       -0.023076447 0.020681191 -0.04918092 -0.04114577
0000c0 b6 fe eb bc 05 1c 41 3d 62 db dd 3c 9b 55 1e ba
       -0.02880798 0.047145862 0.027082149 -0.0006039978
0000d0 90 ea 64 bd 4b d5 32 bc e2 49 13 3b 5d bd 4f bc
       -0.05588776 -0.010915111 0.0022474458 -0.012679425
0000e0 96 8d 38 bd b6 f0 92 3c 6f 2f 35 bd e9 2e 99 bb
       -0.045056902 0.017937046 -0.04423469 -0.0046747816
0000f0 9c 80 22 3d ed c8 49 bd 1d 2a ea bc e5 3d 1f bd
       0.039673433 -0.049263883 -0.028584534 -0.038877387
000100 05 61 37 bc c5 eb ea 3c 8a f2 2a bd 59 ec 85 bc
       -0.011192565 0.028676877 -0.04173521 -0.01634805
000110 db 84 26 3d f7 a4 bd 3b e7 e6 5b bc cc 99 93 3c
       0.040654045 0.0057874876 -0.013421751 0.018017672
000120 13 13 b2 3c 5e 0d 3d 3d 43 11 ef bc 3e bf 0e bd
       0.02173761 0.046155326 -0.029183036 -0.03485035
000130 9b e6 9f 3c f7 ca 30 3b a6 1c 6d bd a0 2b bc bb
       0.019519141 0.0026976445 -0.05788865 -0.005742505
000140 b6 5c 86 bd 62 ab ab 3a e5 89 a2 bc 8c ae 7f bd
       -0.06560652 0.0013097341 -0.019841144 -0.06242232
000150 be a0 43 bb f4 56 55 bc 9f 56 65 bd 5c 76 14 3c
       -0.0029850448 -0.0130212195 -0.05599081 0.009061422
000160 46 b6 04 bd b9 eb 2f bd 2d d0 36 bd 1d b7 a6 3c
       -0.032400392 -0.042949412 -0.044632126 0.020350987
000170 e8 c4 b2 3c e6 14 b4 bc 53 8f 30 3c c9 69 ab bc
       0.021822408 -0.021982621 0.010776359 -0.020924466
000180 ab 1f 5e bd 51 79 24 bd 4c da 94 3c f1 37 82 bb
       -0.05422942 -0.04015476 0.018170498 -0.003973954
000190 3a f8 cb 3b 88 4f 63 bd e2 e6 94 3c 41 3f 6b bd
       0.0062246593 -0.05549577 0.0181765 -0.05743337
0001a0 29 d8 27 3d 06 e3 de bc 0b 9e a5 3a c8 86 e8 bc
       0.04097763 -0.027207863 0.0012635601 -0.028384581
0001b0 90 44 a7 bc 8c c0 37 bd 2d 4e c6 3b c3 58 99 3c
       -0.020418435 -0.04486136 0.0060517997 0.018719083
0001c0 6b dc 24 bc 2e 15 24 bc 8f ab 49 3c 50 83 c9 3b
       -0.010062317 -0.010014815 0.012308969 0.006149687
0001d0 14 d2 31 bc 43 b3 86 bd 44 82 20 bd eb 42 a9 3c
       -0.010853309 -0.0657716 -0.03918673 0.020661792
0001e0 26 d6 3e 3b 47 fc ea bb d0 f1 09 ba 34 14 11 3d
       0.0029119342 -0.007171187 -0.0005262168 0.035419658
0001f0 95 24 04 bd 4a dd fa bc a8 ba 89 bc 3f 43 9d ba
       -0.03226145 -0.030623097 -0.016812637 -0.001199819
000200 aa ac 90 3c a2 53 87 bd 26 9a 8f bb 31 cd 0b bd
       0.017660458 -0.066077486 -0.0043823896 -0.034131233
000210 b1 d5 6e bd f6 99 22 3c ee b9 d6 bc ef 01 0a bd
       -0.05830926 0.009924402 -0.026211705 -0.03369325
000220 40 fd 55 3c dc 81 c4 3c 1f a1 45 3c 88 df f5 3c
       0.013060868 0.023987703 0.01206234 0.030013815
000230 0c f6 05 bc ed ef 7d 3c 80 c2 5f bd 8f c4 89 bd
       -0.008176338 0.015499097 -0.05462885 -0.06726944
000240 90 16 be bb 8d 3b 99 bc e4 ef bf bc 7e ef 85 bc
       -0.0058010295 -0.018705154 -0.023429818 -0.01634955
000250 95 6a 4b 3c 61 8b 37 bd d7 2f 23 bd ab d4 58 ba
       0.012415548 -0.044810656 -0.039840546 -0.0008271436
000260 8c 2a e2 3c ae 7c 95 3c 4a 82 f4 bc 5c 02 3f 3c
       0.027608179 0.018247928 -0.029847283 0.011658277
000270 10 f3 c1 bc b3 56 10 bd df 35 75 bd fc 1a 86 bd
       -0.023675472 -0.035238933 -0.05986583 -0.065481156
000280 5e 3f 17 3d e6 e0 1f 3d 3c 06 58 3d 23 79 73 bd
       0.036925666 0.03903284 0.05274032 -0.059441697
000290 e4 68 00 3d 1b 7e 9f 3c d1 51 81 bd e2 02 90 bc
       0.03135003 0.019469311 -0.06314433 -0.0175795
0002a0 43 63 ba 3a d4 81 f1 bc e9 f2 60 bd a2 6a 51 bd
       0.0014220256 -0.029480852 -0.054919157 -0.051127084
0002b0 1d 80 73 bd 71 60 1f bd 81 b3 d7 bc a2 c1 19 bd
       -0.05944835 -0.038910333 -0.026330711 -0.03753818
0002c0 99 95 54 3c 91 27 6e 3b ee 03 52 bc c7 5e 66 bd
       0.01297512 0.0036339501 -0.01281832 -0.05624273
0002d0 61 d6 58 bd 0d c0 bb bb 77 2a fb bc 2b 6f 3c bd
       -0.052938823 -0.0057296813 -0.030659897 -0.046004456
0002e0 76 f4 a4 3c ec 61 a6 bb 7b 25 81 3c e2 6a b2 bc
       0.0201361 -0.005077591 0.015764942 -0.021779481
0002f0 19 9c bd 3c 29 bf 39 bc b1 f4 a0 bb 12 d7 ee 3c
       0.023145722 -0.01133708 -0.004911982 0.029155288
000300 80 cf e8 3c 5c ba 19 3d ed 8e 34 bd 66 22 e9 bb
       0.028419256 0.03753124 -0.044081617 -0.0071146963
000310 33 35 a7 ba 94 33 80 bc 04 f8 4b bd 24 83 30 bd
       -0.0012756943 -0.015649594 -0.049797073 -0.043093815
000320 2a 6d aa bc 52 7a 26 bd ca bc 7e 3c ad f7 1c bc
       -0.020804007 -0.040643997 0.0155479405 -0.009580535
000330 da 6a 5f bc aa c3 e7 3c e7 26 1d bb 2c 76 00 3d
       -0.013636315 0.028291542 -0.0023979486 0.031362697
000340 4f 9d 89 bd aa 1a ec b9 a8 f7 b9 3c c0 41 55 bc
       -0.06719457 -0.00045033294 0.0227011 -0.013016164
000350 7d 32 b2 3c 89 53 c3 3b 73 ef eb 3c 6e f2 f6 bc
       0.02175259 0.005960886 0.028800702 -0.030144896
000360 ed b3 63 bd 66 b8 4f bc 74 1e 17 bc e6 aa b7 3a
       -0.055591512 -0.012678241 -0.009223569 0.0014012724
000370 40 9e 8f 3c 4e 08 25 ba 74 0c 92 bb a9 7f 35 ba
       0.017531514 -0.0006295488 -0.004457051 -0.0006923625
000380 13 02 17 bc 84 8f d3 3c 53 6a 3c bc 4c b6 88 bd
       -0.009216803 0.02582527 -0.011499959 -0.06675395
000390 17 d8 ba bc 63 fc 89 bd 64 02 4a bc 36 fb 57 bc
       -0.022808118 -0.06737592 -0.0123296715 -0.013182452
0003a0 0d d6 e4 3c 8a 35 1d bd c5 95 fb 3b db 4c 5f bd
       0.027934099 -0.038381137 0.007677766 -0.054516654
0003b0 f6 96 09 bd e8 78 ba bc e5 84 51 bc 86 60 ac 3c
       -0.033591233 -0.02276273 -0.012788032 0.02104212
0003c0 58 25 4e 3c c4 57 53 bd 96 9b fc bb 41 81 5b bc
       0.012582146 -0.05159737 -0.007708977 -0.013397516
0003d0 70 3f 90 3c c3 c6 83 3c a1 e0 5c bd 42 65 07 3d
       0.017608374 0.016085988 -0.05392516 0.03305555
0003e0 1b 94 dc bb 16 67 4b 3b 43 1f a8 bc 28 52 08 3d
       -0.0067315227 0.0031036786 -0.02052272 0.033281475
0003f0 82 b7 7a bd 7b ef 9c bc 48 a1 cd 3c 6e 54 44 bd
       -0.061210163 -0.019157162 0.025101319 -0.04793208

fc1.bias f4 [120]
000000 ae 0b 69 bd 1f 2a ab be 09 ca f2 3d 67 82 33 bd
       -0.056895904 -0.33430573 0.118549414 -0.043825533
000010 cf d8 0e bd 1f f0 20 3f 5f 19 39 3f 23 d3 76 be
       -0.034874734 0.62866396 0.7230434 -0.2410398
000020 6e 3a ba 3e 4b 01 d4 bd c7 42 4e 3d b5 6d ad be
       0.36372703 -0.10351809 0.050356653 -0.33872762
000030 db 06 fc 3d f5 8f ac 3e 86 bc af 3c 51 77 af 3e
       0.12305995 0.3370358 0.0214522 0.3427072
000040 8e 09 18 3f b5 2e de bb b1 a2 b0 bd 5b 46 28 bf
       0.5938958 -0.0067804703 -0.08624781 -0.65732354
000050 b0 16 5e be aa 1c 00 bd 9b 58 d3 3e f1 b4 ce bc
       -0.21688342 -0.031277336 0.41278538 -0.025232764
000060 4b 08 8e bf ab a0 07 bf c5 e9 e1 be 22 56 6a bd
       -1.1096281 -0.52979535 -0.44123664 -0.05721105
000070 62 33 fb 3e d8 9c 2e bd cb cb 9d bd 49 11 61 3e
       0.4906264 -0.042630047 -0.07704886 0.2197925
000080 40 eb bf 3e c8 4d f7 3e 9d c6 4b bd a0 34 76 bd
       0.3748417 0.4830153 -0.04974996 -0.06010878
000090 ac fd 73 bb 9c 80 44 3e 2f d7 17 bd a5 78 b2 be
       -0.0037230058 0.19189686 -0.03707045 -0.3485767
0000a0 50 6e c1 39 70 5d f4 3d d3 1a 49 3d b8 17 42 3f
       0.00036894018 0.11931884 0.049097847 0.7581744
0000b0 9a b1 80 be 3a bc 12 be a5 cf 5c 3e 20 c2 ad be
       -0.251355 -0.14329615 0.21563585 -0.33937168
0000c0 a2 d5 04 bf 05 b8 9d 3e bb ca e1 be ad 79 d5 3e
       -0.5188848 0.30804458 -0.44099984 0.41694394
0000d0 4b 4e 6e bd 85 e1 a2 3c d9 19 ed 3c 68 29 26 bd
       -0.058180135 0.019882927 0.02894299 -0.04056683
0000e0 3d 09 e7 bc 12 5f 9d 3e 27 98 0e 3d 93 32 82 3d
       -0.028202647 0.30736595 0.034813073 0.063573025
0000f0 2b bb 03 3f e2 b1 b8 be c1 8c 06 bf ee f6 84 3e
       0.5145747 -0.36073214 -0.52558523 0.25969642
000100 27 c4 82 bd 6e 50 41 bf 5c e7 f8 bd d6 84 b2 be
       -0.06385069 -0.7551335 -0.12153503 -0.3486697
000110 16 82 41 bd 3e 5e 07 3f 4d 4e b9 3b c9 55 81 bd
       -0.0472432 0.5287818 0.005655086 -0.0631519
000120 2e 49 94 bc 70 5d d5 bd 7a 0d 78 bd e4 50 6e bc
       -0.018101301 -0.104182124 -0.060559727 -0.014545653
000130 67 01 14 bf 7f 0e fe 3e 05 02 fe be d6 53 10 bc
       -0.5781464 0.49620435 -0.49610916 -0.008809051
000140 9f 42 c3 bc 0a c3 23 bd cf 87 aa be a9 ca a9 be
       -0.023835478 -0.039980926 -0.3330674 -0.3316243
000150 cb a8 9e be 79 31 19 3e 0a ff c4 3e ab 60 00 3e
       -0.30988154 0.14960279 0.3847583 0.12536876
000160 49 43 57 3b c8 cb 55 3f 84 a6 2b be 7a 09 10 3f
       0.0032846502 0.8351407 -0.1676274 0.5626446
000170 47 a4 63 bd 55 e6 0b bf ac fb 33 bf 22 38 6e 3e
       -0.05557659 -0.54648334 -0.70305896 0.232636
000180 07 5c a8 bd b2 8f 85 3b c6 1c f1 bd c6 8f 7b 3e
       -0.08220678 0.0040759677 -0.11773066 0.24566564
000190 fa 38 8a bc b5 ff 5a 39 a1 b9 18 3d 3f 5f e8 3c
       -0.016872872 0.00020885358 0.037286405 0.02836573
0001a0 39 54 a0 3e 13 e2 6e 3f 77 43 7a 3c 3a f9 92 3e
       0.31314257 0.9331371 0.015274874 0.2870577
0001b0 a0 a1 07 bd 27 37 33 be 31 96 82 bc 9c 3f 7e 3d
       -0.033113122 -0.17501508 -0.015940757 0.06207238
0001c0 00 2d ad 3e a0 72 16 bd 2d 96 83 3e 5c ae 45 bd
       0.33823395 -0.03673041 0.25700513 -0.048261985
0001d0 6e 76 03 3e 72 c4 e0 3e fb b7 05 bd a3 2d 15 3f
       0.12838146 0.43899876 -0.03264616 0.5827276

fc2.weight f4 [84, 120]
000000 3a 13 93 bd d0 f1 b6 3d 31 30 83 be 22 d1 2b 3d
       -0.071814016 0.08932841 -0.25622705 0.04194749
000010 f4 3a 9c bd ca 4e e4 bd cb 42 23 be d1 4b bb 3d
       -0.07628432 -0.1114784 -0.15943448 0.0914532
000020 03 0f 2c 3e 3c ab 13 3e 9c 99 71 3e 26 71 35 bd
       0.16802602 0.1442079 0.23593754 -0.04429736
000030 0f aa 33 be 9d 0a 8b 3e 32 cf 97 3d 47 cd e6 3d
       -0.17545341 0.27156535 0.07412566 0.11269622
000040 82 f0 a6 be 79 0d a8 3d 9b 2c c7 3e c7 9a 9c 3e
       -0.32605368 0.08205695 0.3890122 0.30586836
000050 18 5a b5 3e a9 0d 73 bd 19 00 1b 3f 09 04 e1 b9
       0.354203 -0.0593392 0.60547024 -0.0004291835
000060 26 c1 49 3d 5d 4b 42 3e 91 44 0a 3e e0 e2 07 bd
       0.049256466 0.18974061 0.13502719 -0.03317535
000070 be d5 46 be ac 98 10 3d b6 13 a2 3e f8 58 d4 bd
       -0.19417474 0.03530185 0.31655663 -0.10368532
000080 21 59 ac 3c c5 16 2c 3e 51 ef 00 3c af 78 c8 bc
       0.021038594 0.16805561 0.0078695575 -0.024471609
000090 a3 47 1f 3c 57 ce 03 3d da d2 21 bb 9d 38 50 3e
       0.009721669 0.032179203 -0.0024692328 0.20334096
0000a0 c2 de 9a bd 87 5a 38 3d 4a ac 04 bf 88 bc 03 be
       -0.07562019 0.04500821 -0.5182539 -0.12864888
0000b0 e8 93 3c 3e 86 6d 92 bd 35 b9 a0 3c 48 3f 2a 3d
       0.18415797 -0.07149796 0.019619564 0.041564256
0000c0 9b 10 8c 3e 76 35 83 3c b4 59 ca bd bb e9 c5 be
       0.2735642 0.016016703 -0.09880391 -0.38654885
0000d0 8c 5f af bd 1c 1b 98 bd 13 90 04 3c 77 a2 bf 3d
       -0.08563146 -0.07427046 0.008090991 0.093571596
0000e0 3e db 51 bd 62 40 86 bc 7b db f1 bd 6d fc fd 3c
       -0.051234476 -0.016388122 -0.11809441 0.031004155
0000f0 2f 70 a9 3d a1 fc d0 bc 69 85 dc bd 62 d3 d3 be
       0.082733504 -0.025511088 -0.107676335 -0.4137221
000100 13 ea be 3e bb 79 0c 39 43 61 b8 bd a8 4a 56 3d
       0.3728796 0.00013396789 -0.09002926 0.05231729
000110 86 53 6e 3d f0 6f ca 3e 73 0a 90 bd 90 4d ac 3d
       0.058185123 0.39538527 -0.07033243 0.084132314
000120 ad e2 73 bd 75 c6 5a be 54 b9 9d bd 45 2c 8a 3d
       -0.059542347 -0.21364768 -0.07701364 0.06746725
000130 78 b2 e9 3d 3c a9 09 bf 0d 95 e0 3d 86 1f f3 bc
       0.11410993 -0.53773856 0.10965929 -0.029678117
000140 18 0f 90 bc 25 62 e5 bc 6a 18 15 bc 4f df 48 bd
       -0.017585322 -0.0280009 -0.009100059 -0.04904109
000150 f6 fa 09 be 80 4d 0b 3e 75 36 33 3e e0 b8 bb be
       -0.1347464 0.13603783 0.17501242 -0.36664486
000160 0d b4 09 3c 19 8d 7e be 69 59 65 3e 72 58 22 be
       0.008404744 -0.24858512 0.22397389 -0.15854052
000170 5c 9e 37 3d 8f 4f 12 3e b7 3f d4 bc 3a 95 5a bd
       0.044828758 0.14288162 -0.025909288 -0.05336497
000180 7a 05 33 be 8a a6 2e 3c 98 68 93 3e 9e 42 d0 bd
       -0.17482558 0.010659823 0.28790736 -0.10168956
000190 3d fa a9 be 2c fb 8a bd d8 ea d2 bd 8c 31 66 be
       -0.3319873 -0.067861885 -0.10298699 -0.22479838
0001a0 8a b4 76 3e 00 53 18 3e 13 47 7d bd dc 42 a8 bc
       0.24092308 0.14875412 -0.06183536 -0.020539694
0001b0 1b 84 f3 3c 86 fa e7 3e 31 86 5b 3d f4 74 18 bf
       0.029726079 0.45308322 0.05359477 -0.59553456
0001c0 0a 28 6c 3e 9d 6f d5 bd 92 1b 57 3e 4a 3c d8 be
       0.23062149 -0.10421679 0.21006611 -0.42233497
0001d0 f4 8a af be e1 c5 0d 3e 92 13 29 bd b3 cb d5 3d
       -0.342857 0.13845016 -0.04127843 0.10439243
0001e0 3a d8 82 3b db e7 74 bd b9 be 06 bf 9c 70 0a bd
       0.0039930614 -0.059791427 -0.5263477 -0.0337988
0001f0 bd 0d 84 3d fd 38 5f bc a8 50 51 3e a7 a4 4a be
       0.06447933 -0.013624427 0.20440924 -0.19789372
000200 3d 10 e9 bb 7d 93 c1 bd e2 31 c9 bd d0 b2 c9 bd
       -0.0071125315 -0.09451959 -0.098239675 -0.09848559
000210 54 50 74 3e 59 9c 15 3e 43 7e c8 bc c8 e2 d9 3e
       0.23858768 0.14610423 -0.024474269 0.42555833
000220 0a f3 1d 3e 2d 30 8e 3d 2d 01 03 3d 6d 30 14 3e
       0.15424743 0.069427826 0.031983543 0.14471598
000230 e2 e3 4d 3f 98 59 28 bd a1 3f 7a be c2 ca 04 3e
       0.80425847 -0.04110107 -0.24438335 0.12967971
000240 c4 04 89 3e 32 fb 00 3e 98 e9 89 3e 68 94 a5 3d
       0.26761448 0.12595823 0.2693603 0.08084947
000250 30 ef 9c 3b c7 ab 44 3b ce 9a e5 3e f0 82 b3 3a
       0.0047892556 0.0030009614 0.4484467 0.0013695639
000260 9c e8 2e bd db 70 11 3e 41 f8 c6 bd 56 f9 c0 bc
       -0.042702302 0.14203207 -0.097153194 -0.023556393
000270 6b 4c 64 bd de a0 1f be 93 cc dc 3c 24 73 30 bd
       -0.05573694 -0.1558871 0.026953017 -0.043078557
000280 86 5a 4b 3b 0e 53 24 3e e6 31 04 3e 30 af 2f 3e
       0.0031029298 0.16047308 0.1290966 0.17156672
000290 48 3e 1e 3e 43 15 bc 3e e5 77 f6 be fd e8 e0 be
       0.15453446 0.3673497 -0.48138347 -0.43927756
0002a0 5d 2c 30 3d 85 e3 ff 3d 10 d8 e8 bd 81 a0 29 3e
       0.043011058 0.12494568 -0.11369336 0.16565134
0002b0 15 85 84 bd 2b 80 a4 bc 4d 25 69 3d 63 4e 9c 3d
       -0.06470696 -0.020080646 0.05692034 0.076321386
0002c0 73 4b 7b 3b 81 4c b0 bd af f1 ff 3d e1 03 57 be
       0.0038344532 -0.08608342 0.12497269 -0.20997573
0002d0 fe fb 10 3c b6 94 ae 3e f3 79 16 3e e1 22 03 3e
       0.008849142 0.34097832 0.14694957 0.12806274
0002e0 21 64 c0 3e 14 94 1b 3d ef 88 3e be dd c5 b4 3d
       0.37576392 0.037983015 -0.18606924 0.08826802
0002f0 d6 a3 04 bd 24 52 28 be 59 54 38 bd 2e 94 ab bd
       -0.03238281 -0.16437584 -0.045002315 -0.083778724
000300 53 4f 37 3d bb 7f bf be 2a 99 a5 bd b2 6b 79 3d
       0.044753384 -0.37402138 -0.08085854 0.060893722
000310 eb b9 91 be 83 95 0d be ce ef 00 be 56 27 cb 3d
       -0.28462157 -0.13826565 -0.12591478 0.09919612
000320 80 f8 cd bd 69 e7 98 3c 66 5b 9f 3d 1d 12 af 3d
       -0.10057163 0.018665032 0.07781105 0.08548377
000330 26 be ea 3d 1a df 35 3e 4d 7b b5 3d 0d 03 06 3e
       0.11462049 0.17760888 0.088614084 0.13087101
000340 f9 98 0a bd 20 77 a7 be db 1f e7 bc 00 05 32 be
       -0.033837292 -0.32708073 -0.028213432 -0.1738472
000350 fe f3 a6 bd 35 a5 8c be 25 a8 2e 3e 25 99 e8 bc
       -0.081520066 -0.27469793 0.1705633 -0.028393338
000360 7e 15 38 3e 37 f6 11 bd 3b 83 11 3e 98 3f 50 bf
       0.17976949 -0.0356352 0.14210217 -0.81347036
000370 ec 8e 1a 3c c2 16 00 bd 5a ba 09 3d 43 da 47 be
       0.009433489 -0.031271704 0.033624984 -0.19516854
000380 a5 cc d7 bd f8 85 c8 be 01 7b ac 3c 6a 2e ce 3c
       -0.1053708 -0.3916471 0.021054747 0.025168616
000390 8e 03 f8 bc 7a 0c 0e be 8c f6 b3 bb fd 34 17 bd
       -0.030275133 -0.13871947 -0.005492037 -0.036915768
0003a0 9d be a1 be 6e 64 95 be 65 2f ab 3d 00 14 40 3e
       -0.3159074 -0.29178184 0.08358649 0.1875763
0003b0 9d 13 d2 3d 6b aa d0 be 27 ae 32 3d ef 1c 05 3e
       0.10257647 -0.4075502 0.043623116 0.12999319
0003c0 89 d8 0a bd 0c 7d 9a be e1 8d 60 bf e4 09 09 bd
       -0.03389791 -0.30173528 -0.8771649 -0.033456698
0003d0 46 48 ee bc a7 ed fb bd 18 54 59 3e 1e e9 a7 bd
       -0.029087197 -0.12301188 0.21223485 -0.081987604
0003e0 9c 84 11 bf c4 e3 07 3d 89 0b bf bd a6 c4 c7 3d
       -0.5684297 0.0331762 -0.09328372 0.097543046
0003f0 85 ed 7a 3d aa d9 8a 3d 80 a1 98 bb b2 4f c0 3d
       0.061261673 0.067797974 -0.004657924 0.09390201

fc2.bias f4 [84]
000000 30 ff cd bd 0c 14 2d bf 27 b9 55 bc 5d b9 ef 3c
       -0.10058439 -0.67608714 -0.013044632 0.029263193
000010 07 0f c2 3e b6 d1 37 3e 39 c3 b6 bd 2a e4 27 3e
       0.3790209 0.17951092 -0.089239545 0.16395631
000020 dc 65 f0 3d 70 a3 c0 3e 6a 99 d9 bd db 8d 6e 3f
       0.11738178 0.37624693 -0.106249645 0.93185204
000030 bc 60 39 be aa ed 0e bd 04 45 1d 3d 25 f9 de 3e
       -0.18103307 -0.034894623 0.038395897 0.43549457
000040 d3 9a 0a bf 90 e6 c3 be e4 0f 77 3e 0d 5f 2c 3c
       -0.54142493 -0.38261843 0.24127156 0.010520709
000050 1a b5 bb 3e 65 fa 37 3f ef fd 30 bd 0a 9d 11 be
       0.36661607 0.71866447 -0.04321092 -0.14220062
000060 d7 92 b7 be 19 3b be 3e bd ef c5 bd d0 d3 68 3f
       -0.35854217 0.37154463 -0.09664867 0.909482
000070 3e 6a 87 bc f4 4a 5e 3f 41 8c fd 3e 83 b4 e3 3e
       -0.016530152 0.8683312 0.49521068 0.44473657
000080 83 81 1c bf fd 86 e0 bd ef 41 b8 3c 46 b8 05 3f
       -0.6113512 -0.10963247 0.022492377 0.52234304
000090 86 eb b0 bd 7c 64 60 be 9c 91 3d 3f 42 57 ef bd
       -0.086386725 -0.21913332 0.7405031 -0.11686565
0000a0 c9 65 26 be 1f 65 17 be e2 12 86 be ff 5d ca bc
       -0.16249765 -0.14784668 -0.2618628 -0.024703024
0000b0 bf ad fc bd 13 1e 72 3d a7 eb c1 3e 5b 0e a5 be
       -0.12337827 0.059110712 0.378751 -0.32237515
0000c0 68 46 05 bf f5 4c 4f be 56 d5 04 bf 68 e1 cb be
       -0.52060556 -0.202442 -0.51888025 -0.3982041
0000d0 99 ab 16 bf 82 c4 47 3d b8 8d 27 3f 1b 9e 10 3f
       -0.5885559 0.04877139 0.6545062 0.5649125
0000e0 f4 44 cf bd cd 51 95 3e f2 ad 45 3d 2d 5e 45 3e
       -0.10120574 0.29163972 0.04826159 0.19274206
0000f0 69 48 3f 3f f6 28 2e 3e 6b 75 9e 3d d2 ab 67 3e
       0.74719864 0.17007813 0.077372395 0.22624138
000100 4a ee cd be b5 7a e9 be bf b3 23 bd 28 fd 13 3f
       -0.40220863 -0.4560143 -0.03996634 0.5780816
000110 2b 7f 6e bd b4 02 4a be e2 87 87 bd bf 0f 24 be
       -0.058226746 -0.19727594 -0.066177145 -0.16021632
000120 31 f2 04 3f 77 1a a9 be 07 95 0b 3e aa 3c 26 3f
       0.51932055 -0.33028004 0.13631068 0.64936316
000130 81 50 13 3e 10 02 5a 3e 14 cb a0 be 7c 4d 85 bc
       0.14386179 0.2128985 -0.31404936 -0.016272299
000140 6a da 88 3e e9 e9 d0 be b8 7c 3c be 2b db 30 be
       0.26729137 -0.4080346 -0.18406951 -0.17271106

fc3.weight f4 [10, 84]
000000 3b f3 a2 3b 96 62 8a be d3 72 0e bf 98 d6 07 3e
       0.004972843 -0.2702834 -0.5564396 0.13265455
000010 96 39 3b 3e 6d f2 84 be a5 b8 24 3f c1 7c 56 3c
       0.18283686 -0.25966206 0.64344245 0.013091267
000020 25 07 5d 3e df cd 90 3d ff 9a d9 3d 85 42 fe be
       0.21584757 0.07070517 0.10625266 -0.49660125
000030 5e f2 04 3e a9 25 1b bf 77 ee 82 3d 56 e3 99 3d
       0.1298308 -0.6060434 0.0639314 0.07514064
000040 f0 31 cc 3d 6e 9b 75 be f5 61 4f bd a7 b9 c6 be
       0.09970462 -0.23985073 -0.05063053 -0.38813516
000050 39 94 5c 3e 97 6c 44 bf d4 be 13 3e bd 31 40 bd
       0.21540917 -0.76728195 0.14428264 -0.046922434
000060 22 f8 00 bf 6a 75 72 3d 00 9e c9 bd a0 ba 0a bf
       -0.5037862 0.059194006 -0.09844589 -0.5419102
000070 50 b7 1a be 9a 4b 8b be fd a8 50 3e 61 4b ed be
       -0.1510899 -0.27206117 0.20376964 -0.46346572
000080 e4 2c 6d 3d 4d a3 87 be 0d 87 09 bf 28 26 39 be
       0.05790414 -0.26491776 -0.53721696 -0.18080962
000090 f0 58 6e be 61 16 8f 3d c3 97 55 bf 1c 21 90 3e
       -0.23276114 0.0698669 -0.83434695 0.2815026
0000a0 0a 4f fc be 11 e3 d6 be 6e 68 62 bf 53 06 ba be
       -0.49279052 -0.41970113 -0.884406 -0.3633295
0000b0 70 63 e3 be 71 da 7e 3e 8c da a8 bd 89 02 bb 3e
       -0.44411802 0.24888016 -0.082448095 0.36525372
0000c0 25 9c ec 3d 61 30 38 3e bb 1f d6 3d cb 65 20 3e
       0.1155322 0.17987205 0.10455271 0.15663831
0000d0 9a c6 d2 bd 27 77 80 bd c5 66 6b bc bf 82 04 bf
       -0.102917865 -0.062727265 -0.014367764 -0.51762
0000e0 62 ef d6 3d f2 6a 00 bf 58 e1 1d 3d 90 04 36 3d
       0.104948774 -0.50163186 0.038544983 0.044437945
0000f0 df fd dc be b7 56 81 3e 37 27 a0 bb e8 d0 98 bb
       -0.43162438 0.2526147 -0.0048874873 -0.0046635754
000100 91 c5 f2 bd 5a cf 9b 3e 8e d1 99 be ed 73 3f be
       -0.11854089 0.30431634 -0.3004269 -0.18696566
000110 eb c8 9b bd 2c 16 f9 3c db 02 00 bc 58 7f f1 be
       -0.076066814 0.03040608 -0.007813181 -0.47167468
000120 1c 92 b0 be d2 a2 ce bd 0c 9a c1 be 49 5d 32 bf
       -0.34486473 -0.10089649 -0.3781284 -0.6967359
000130 39 30 b4 bd 24 01 d5 3d 71 61 b8 bd 52 21 e0 3d
       -0.0879826 0.10400608 -0.090029605 0.10943855
000140 99 02 e0 3d 7d 9f a8 3e c5 64 de 3d 88 88 43 bf
       0.109379955 0.3293418 0.10859064 -0.76380205
000150 ba be b4 3d 4b 42 a0 3e b1 8c dd be fe 2d f8 be
       0.08825441 0.31300578 -0.43271402 -0.4847259
000160 b9 b7 05 be a5 90 22 be 32 91 9f be b5 51 19 3e
       -0.13058366 -0.1587549 -0.31165463 0.14972575
000170 3b 97 d9 bd b5 2e 19 bf 7d 6d 34 3e b4 37 57 bc
       -0.10624548 -0.59836894 0.17619891 -0.013135839
000180 42 f1 81 bd 46 22 74 3d 2c 30 c2 3c 6e 8b 8f be
       -0.063448444 0.059603 0.02370461 -0.28036064
000190 46 e7 84 3e 1e 62 43 3e 7d 04 9c bd 2d f2 16 be
       0.25957698 0.19080397 -0.076180436 -0.1474082
0001a0 91 1e 73 be 99 36 84 be 00 a6 a1 bd 1e c9 eb bd
       -0.23742129 -0.25822905 -0.0789299 -0.115129694
0001b0 11 65 0b be 20 d5 45 3e 87 f9 a0 bd c1 27 f8 be
       -0.13612773 0.19319582 -0.078600936 -0.4846783
0001c0 73 94 0a bf fd 47 ea bd 64 02 19 bf 15 1a 20 3e
       -0.54132766 -0.11439512 -0.5976927 0.1563495
0001d0 68 21 2e 3e c2 c1 ba 3e fc 62 eb 3d 39 4f 8f be
       0.17004931 0.3647595 0.11493489 -0.2799013
0001e0 55 0b 8d bf 5a c4 ff bd e8 b1 86 be 59 6f 8d be
       -1.1019083 -0.12488623 -0.26307607 -0.27624014
0001f0 ad 81 b1 3e 41 06 27 3e 6f da 1b 3f 43 d4 fb 3d
       0.34669247 0.1631098 0.6088018 0.12296345
000200 f8 15 bf 3e 33 b1 05 be 94 c1 1c 3e cb 95 8b bb
       0.37321448 -0.13055877 0.15308219 -0.0042598
000210 84 ee 80 3e bb a3 d7 be ce 9c 09 be 00 b9 70 bd
       0.25181973 -0.42117104 -0.13438722 -0.05877018
000220 bd cf b7 3c c5 89 c5 bd cf 4a 9b be b6 32 b7 be
       0.022437925 -0.09645418 -0.30330512 -0.35780877
000230 ee ba 07 bf 3b da 17 bf f6 e1 62 be f3 c9 dd be
       -0.5301961 -0.5931737 -0.2215651 -0.43318138
000240 ef 7d 0e bf 59 e8 06 be 5e c1 91 be 4f d3 d1 bd
       -0.5566091 -0.13174571 -0.2846784 -0.10245382
000250 d1 95 5a 3e 22 fc 87 be 9d 2c 8b bd 39 02 32 be
       0.21346213 -0.2655955 -0.06795619 -0.1738366
000260 14 dc 1a be 51 ee de 3d f4 d5 41 bd 15 5a 9a 3e
       -0.15123016 0.10885299 -0.047323182 0.30146852
000270 92 e7 ad bb c3 52 02 3e f9 85 1d be 2c 89 11 bf
       -0.0053071463 0.12726884 -0.15383138 -0.5684993
000280 a0 0c 14 bf 08 fd 94 3d 76 b5 35 be 4f 96 60 bf
       -0.57831764 0.072748244 -0.17745003 -0.8772935
000290 df 81 c8 be 78 48 08 bf c4 78 a2 3d d8 7a d2 3d
       -0.39161584 -0.5323558 0.079331905 0.10277337
0002a0 e7 e4 40 bd e2 87 0a 3e a3 6b b2 3e 68 1d 97 bd
       -0.0470933 0.13528398 0.34847745 -0.07378656
0002b0 3b fb ae be 8f 58 d8 3d f4 49 56 bf 58 3d 28 bf
       -0.3417605 0.10563766 -0.83706594 -0.65718603
0002c0 58 4e c2 be 35 a8 34 3e 0a 1c 0d bf 1c da bc 3d
       -0.37950397 0.17642291 -0.5512091 0.092212886
0002d0 6b 9b 6d 3d 85 0f df be 88 40 94 bc e6 59 9e bc
       0.058009546 -0.43566528 -0.018097177 -0.019329976
0002e0 8e bb 23 3e b0 5a 76 bf d8 42 ce 3d 70 ae d0 bd
       0.15989515 -0.9623213 0.10071343 -0.10189521
0002f0 0f 12 31 bf 61 d1 f1 bd bd 0e 16 3e 7d 47 bf 3c
       -0.6916818 -0.11807514 0.1465406 0.023349518
000300 c6 71 4c 3e 58 93 29 bd cb 1d ce bd 86 63 48 3d
       0.19965276 -0.041400284 -0.10064276 0.048923038
000310 18 d0 46 be 4d 33 a3 3c f5 88 e9 bd 4c b9 91 be
       -0.19415319 0.019921923 -0.114030756 -0.28461683
000320 b7 26 5b 3e e9 f5 98 bd 01 7a 78 bf c7 fd 48 be
       0.21401487 -0.07468779 -0.97061163 -0.19628058
000330 be 89 bc 3e fe c2 3e 3e f1 d4 6f bd 08 3b f7 bd
       0.3682384 0.18629071 -0.058552686 -0.12071806
000340 87 6b 7d be e8 ad 2a bf 7a 87 32 3f fe a3 4b bd
       -0.2474805 -0.6667161 0.6973797 -0.049716942
000350 4e 8d dc bd e1 fc b4 bd b5 38 61 be 14 b3 21 3e
       -0.10769139 -0.08837295 -0.21994288 0.15790969
000360 83 d6 fd bd 16 ec e8 3e 74 47 8a 3d 9d 50 b1 be
       -0.123944305 0.4549262 0.0675191 -0.34631816
000370 eb 8c 25 3e b2 8e a3 be 85 cc 99 bd 15 51 a2 3d
       0.16167037 -0.31944805 -0.07509712 0.079256214
000380 fe 81 b0 3d c6 f9 51 3e 4a 91 30 be 70 f1 f3 3d
       0.08618544 0.20505437 -0.17242923 0.11911285
000390 05 12 97 3d 84 dd a4 be 89 11 bd bc 91 46 4f 3e
       0.07376484 -0.32200253 -0.02307965 0.20241763
0003a0 df a3 7b be e3 5c b1 3e 67 72 f7 bd 36 16 b8 be
       -0.2457423 0.3464118 -0.120823674 -0.35954446
0003b0 99 03 87 bc ff 03 30 be 9a e9 9d bd 76 40 ed 3d
       -0.016481208 -0.17189024 -0.077105716 0.115845606
0003c0 d4 06 6d bd 7f 83 a1 bc 35 2d 08 bf 7c f4 79 be
       -0.05786784 -0.019716023 -0.5319398 -0.2440967
0003d0 5a b9 c4 bd 62 74 49 be 73 a1 c9 3e a5 10 96 bd
       -0.096056655 -0.19673303 0.39380988 -0.073273934
0003e0 56 b9 4a be 6b a0 ac 3d 52 64 b2 be dc a8 fe 3d
       -0.19797263 0.08429035 -0.34842163 0.12434551
0003f0 2f 99 05 3e 07 19 88 be 6f 04 ac be c3 bd 19 bf
       0.13046716 -0.26581594 -0.33597133 -0.6005518

fc3.bias f4 [10]
000000 86 ba 84 be 47 52 30 bf 32 c6 d8 be 33 f4 b8 3e
       -0.25923556 -0.68875545 -0.4233871 0.3612381
000010 2d 9c 17 3f 09 3d dd 3d fb 78 f3 3d 86 a3 79 bd
       0.5922268 0.10802657 0.118883096 -0.060946964
000020 dc 81 31 3e d1 63 f3 bd
       0.17334694 -0.11884273
